{"format": "layers-model", "generatedBy": "keras v2.2.4-tf", "convertedBy": "TensorFlow.js Converter v1.7.4r1", "modelTopology": {"keras_version": "2.2.4-tf", "backend": "tensorflow", "model_config": {"class_name": "Model", "config": {"name": "inception_resnet_v1", "layers": [{"name": "input_1", "class_name": "InputLayer", "config": {"batch_input_shape": [null, 160, 160, 3], "dtype": "float32", "sparse": false, "name": "input_1"}, "inbound_nodes": []}, {"name": "Conv2d_1a_3x3", "class_name": "Conv2D", "config": {"name": "Conv2d_1a_3x3", "trainable": true, "dtype": "float32", "filters": 32, "kernel_size": [3, 3], "strides": [2, 2], "padding": "valid", "data_format": "channels_last", "dilation_rate": [1, 1], "activation": "linear", "use_bias": false, "kernel_initializer": {"class_name": "GlorotUniform", "config": {"seed": null, "dtype": "float32"}}, "bias_initializer": {"class_name": "Zeros", "config": {"dtype": "float32"}}, "kernel_regularizer": null, "bias_regularizer": null, "activity_regularizer": null, "kernel_constraint": null, "bias_constraint": null}, "inbound_nodes": [[["input_1", 0, 0, {}]]]}, {"name": "Conv2d_1a_3x3_BatchNorm", "class_name": "BatchNormalization", "config": {"name": "Conv2d_1a_3x3_BatchNorm", "trainable": true, "dtype": "float32", "axis": [3], "momentum": 0.995, "epsilon": 0.001, "center": true, "scale": false, "beta_initializer": {"class_name": "Zeros", "config": {"dtype": "float32"}}, "gamma_initializer": {"class_name": "Ones", "config": {"dtype": "float32"}}, "moving_mean_initializer": {"class_name": "Zeros", "config": {"dtype": "float32"}}, "moving_variance_initializer": {"class_name": "Ones", "config": {"dtype": "float32"}}, "beta_regularizer": null, "gamma_regularizer": null, "beta_constraint": null, "gamma_constraint": null}, "inbound_nodes": [[["Conv2d_1a_3x3", 0, 0, {}]]]}, {"name": "Conv2d_1a_3x3_Activation", "class_name": "Activation", "config": {"name": "Conv2d_1a_3x3_Activation", "trainable": true, "dtype": "float32", "activation": "relu"}, "inbound_nodes": [[["Conv2d_1a_3x3_BatchNorm", 0, 0, {}]]]}, {"name": "Conv2d_2a_3x3", "class_name": "Conv2D", "config": {"name": "Conv2d_2a_3x3", "trainable": true, "dtype": "float32", "filters": 32, "kernel_size": [3, 3], "strides": [1, 1], "padding": "valid", "data_format": "channels_last", "dilation_rate": [1, 1], "activation": "linear", "use_bias": false, "kernel_initializer": {"class_name": "GlorotUniform", "config": {"seed": null, "dtype": "float32"}}, "bias_initializer": {"class_name": "Zeros", "config": {"dtype": "float32"}}, "kernel_regularizer": null, "bias_regularizer": null, "activity_regularizer": null, "kernel_constraint": null, "bias_constraint": null}, "inbound_nodes": [[["Conv2d_1a_3x3_Activation", 0, 0, {}]]]}, {"name": "Conv2d_2a_3x3_BatchNorm", "class_name": "BatchNormalization", "config": {"name": "Conv2d_2a_3x3_BatchNorm", "trainable": true, "dtype": "float32", "axis": [3], "momentum": 0.995, "epsilon": 0.001, "center": true, "scale": false, "beta_initializer": {"class_name": "Zeros", "config": {"dtype": "float32"}}, "gamma_initializer": {"class_name": "Ones", "config": {"dtype": "float32"}}, "moving_mean_initializer": {"class_name": "Zeros", "config": {"dtype": "float32"}}, "moving_variance_initializer": {"class_name": "Ones", "config": {"dtype": "float32"}}, "beta_regularizer": null, "gamma_regularizer": null, "beta_constraint": null, "gamma_constraint": null}, "inbound_nodes": [[["Conv2d_2a_3x3", 0, 0, {}]]]}, {"name": "Conv2d_2a_3x3_Activation", "class_name": "Activation", "config": {"name": "Conv2d_2a_3x3_Activation", "trainable": true, "dtype": "float32", "activation": "relu"}, "inbound_nodes": [[["Conv2d_2a_3x3_BatchNorm", 0, 0, {}]]]}, {"name": "Conv2d_2b_3x3", "class_name": "Conv2D", "config": {"name": "Conv2d_2b_3x3", "trainable": true, "dtype": "float32", "filters": 64, "kernel_size": [3, 3], "strides": [1, 1], "padding": "same", "data_format": "channels_last", "dilation_rate": [1, 1], "activation": "linear", "use_bias": false, "kernel_initializer": {"class_name": "GlorotUniform", "config": {"seed": null, "dtype": "float32"}}, "bias_initializer": {"class_name": "Zeros", "config": {"dtype": "float32"}}, "kernel_regularizer": null, "bias_regularizer": null, "activity_regularizer": null, "kernel_constraint": null, "bias_constraint": null}, "inbound_nodes": [[["Conv2d_2a_3x3_Activation", 0, 0, {}]]]}, {"name": "Conv2d_2b_3x3_BatchNorm", "class_name": "BatchNormalization", "config": {"name": "Conv2d_2b_3x3_BatchNorm", "trainable": true, "dtype": "float32", "axis": [3], "momentum": 0.995, "epsilon": 0.001, "center": true, "scale": false, "beta_initializer": {"class_name": "Zeros", "config": {"dtype": "float32"}}, "gamma_initializer": {"class_name": "Ones", "config": {"dtype": "float32"}}, "moving_mean_initializer": {"class_name": "Zeros", "config": {"dtype": "float32"}}, "moving_variance_initializer": {"class_name": "Ones", "config": {"dtype": "float32"}}, "beta_regularizer": null, "gamma_regularizer": null, "beta_constraint": null, "gamma_constraint": null}, "inbound_nodes": [[["Conv2d_2b_3x3", 0, 0, {}]]]}, {"name": "Conv2d_2b_3x3_Activation", "class_name": "Activation", "config": {"name": "Conv2d_2b_3x3_Activation", "trainable": true, "dtype": "float32", "activation": "relu"}, "inbound_nodes": [[["Conv2d_2b_3x3_BatchNorm", 0, 0, {}]]]}, {"name": "MaxPool_3a_3x3", "class_name": "MaxPooling2D", "config": {"name": "MaxPool_3a_3x3", "trainable": true, "dtype": "float32", "pool_size": [3, 3], "padding": "valid", "strides": [2, 2], "data_format": "channels_last"}, "inbound_nodes": [[["Conv2d_2b_3x3_Activation", 0, 0, {}]]]}, {"name": "Conv2d_3b_1x1", "class_name": "Conv2D", "config": {"name": "Conv2d_3b_1x1", "trainable": true, "dtype": "float32", "filters": 80, "kernel_size": [1, 1], "strides": [1, 1], "padding": "valid", "data_format": "channels_last", "dilation_rate": [1, 1], "activation": "linear", "use_bias": false, "kernel_initializer": {"class_name": "GlorotUniform", "config": {"seed": null, "dtype": "float32"}}, "bias_initializer": {"class_name": "Zeros", "config": {"dtype": "float32"}}, "kernel_regularizer": null, "bias_regularizer": null, "activity_regularizer": null, "kernel_constraint": null, "bias_constraint": null}, "inbound_nodes": [[["MaxPool_3a_3x3", 0, 0, {}]]]}, {"name": "Conv2d_3b_1x1_BatchNorm", "class_name": "BatchNormalization", "config": {"name": "Conv2d_3b_1x1_BatchNorm", "trainable": true, "dtype": "float32", "axis": [3], "momentum": 0.995, "epsilon": 0.001, "center": true, "scale": false, "beta_initializer": {"class_name": "Zeros", "config": {"dtype": "float32"}}, "gamma_initializer": {"class_name": "Ones", "config": {"dtype": "float32"}}, "moving_mean_initializer": {"class_name": "Zeros", "config": {"dtype": "float32"}}, "moving_variance_initializer": {"class_name": "Ones", "config": {"dtype": "float32"}}, "beta_regularizer": null, "gamma_regularizer": null, "beta_constraint": null, "gamma_constraint": null}, "inbound_nodes": [[["Conv2d_3b_1x1", 0, 0, {}]]]}, {"name": "Conv2d_3b_1x1_Activation", "class_name": "Activation", "config": {"name": "Conv2d_3b_1x1_Activation", "trainable": true, "dtype": "float32", "activation": "relu"}, "inbound_nodes": [[["Conv2d_3b_1x1_BatchNorm", 0, 0, {}]]]}, {"name": "Conv2d_4a_3x3", "class_name": "Conv2D", "config": {"name": "Conv2d_4a_3x3", "trainable": true, "dtype": "float32", "filters": 192, "kernel_size": [3, 3], "strides": [1, 1], "padding": "valid", "data_format": "channels_last", "dilation_rate": [1, 1], "activation": "linear", "use_bias": false, "kernel_initializer": {"class_name": "GlorotUniform", "config": {"seed": null, "dtype": "float32"}}, "bias_initializer": {"class_name": "Zeros", "config": {"dtype": "float32"}}, "kernel_regularizer": null, "bias_regularizer": null, "activity_regularizer": null, "kernel_constraint": null, "bias_constraint": null}, "inbound_nodes": [[["Conv2d_3b_1x1_Activation", 0, 0, {}]]]}, {"name": "Conv2d_4a_3x3_BatchNorm", "class_name": "BatchNormalization", "config": {"name": "Conv2d_4a_3x3_BatchNorm", "trainable": true, "dtype": "float32", "axis": [3], "momentum": 0.995, "epsilon": 0.001, "center": true, "scale": false, "beta_initializer": {"class_name": "Zeros", "config": {"dtype": "float32"}}, "gamma_initializer": {"class_name": "Ones", "config": {"dtype": "float32"}}, "moving_mean_initializer": {"class_name": "Zeros", "config": {"dtype": "float32"}}, "moving_variance_initializer": {"class_name": "Ones", "config": {"dtype": "float32"}}, "beta_regularizer": null, "gamma_regularizer": null, "beta_constraint": null, "gamma_constraint": null}, "inbound_nodes": [[["Conv2d_4a_3x3", 0, 0, {}]]]}, {"name": "Conv2d_4a_3x3_Activation", "class_name": "Activation", "config": {"name": "Conv2d_4a_3x3_Activation", "trainable": true, "dtype": "float32", "activation": "relu"}, "inbound_nodes": [[["Conv2d_4a_3x3_BatchNorm", 0, 0, {}]]]}, {"name": "Conv2d_4b_3x3", "class_name": "Conv2D", "config": {"name": "Conv2d_4b_3x3", "trainable": true, "dtype": "float32", "filters": 256, "kernel_size": [3, 3], "strides": [2, 2], "padding": "valid", "data_format": "channels_last", "dilation_rate": [1, 1], "activation": "linear", "use_bias": false, "kernel_initializer": {"class_name": "GlorotUniform", "config": {"seed": null, "dtype": "float32"}}, "bias_initializer": {"class_name": "Zeros", "config": {"dtype": "float32"}}, "kernel_regularizer": null, "bias_regularizer": null, "activity_regularizer": null, "kernel_constraint": null, "bias_constraint": null}, "inbound_nodes": [[["Conv2d_4a_3x3_Activation", 0, 0, {}]]]}, {"name": "Conv2d_4b_3x3_BatchNorm", "class_name": "BatchNormalization", "config": {"name": "Conv2d_4b_3x3_BatchNorm", "trainable": true, "dtype": "float32", "axis": [3], "momentum": 0.995, "epsilon": 0.001, "center": true, "scale": false, "beta_initializer": {"class_name": "Zeros", "config": {"dtype": "float32"}}, "gamma_initializer": {"class_name": "Ones", "config": {"dtype": "float32"}}, "moving_mean_initializer": {"class_name": "Zeros", "config": {"dtype": "float32"}}, "moving_variance_initializer": {"class_name": "Ones", "config": {"dtype": "float32"}}, "beta_regularizer": null, "gamma_regularizer": null, "beta_constraint": null, "gamma_constraint": null}, "inbound_nodes": [[["Conv2d_4b_3x3", 0, 0, {}]]]}, {"name": "Conv2d_4b_3x3_Activation", "class_name": "Activation", "config": {"name": "Conv2d_4b_3x3_Activation", "trainable": true, "dtype": "float32", "activation": "relu"}, "inbound_nodes": [[["Conv2d_4b_3x3_BatchNorm", 0, 0, {}]]]}, {"name": "Block35_1_Branch_2_Conv2d_0a_1x1", "class_name": "Conv2D", "config": {"name": "Block35_1_Branch_2_Conv2d_0a_1x1", "trainable": true, "dtype": "float32", "filters": 32, "kernel_size": [1, 1], "strides": [1, 1], "padding": "same", "data_format": "channels_last", "dilation_rate": [1, 1], "activation": "linear", "use_bias": false, "kernel_initializer": {"class_name": "GlorotUniform", "config": {"seed": null, "dtype": "float32"}}, "bias_initializer": {"class_name": "Zeros", "config": {"dtype": "float32"}}, "kernel_regularizer": null, "bias_regularizer": null, "activity_regularizer": null, "kernel_constraint": null, "bias_constraint": null}, "inbound_nodes": [[["Conv2d_4b_3x3_Activation", 0, 0, {}]]]}, {"name": "Block35_1_Branch_2_Conv2d_0a_1x1_BatchNorm", "class_name": "BatchNormalization", "config": {"name": "Block35_1_Branch_2_Conv2d_0a_1x1_BatchNorm", "trainable": true, "dtype": "float32", "axis": [3], "momentum": 0.995, "epsilon": 0.001, "center": true, "scale": false, "beta_initializer": {"class_name": "Zeros", "config": {"dtype": "float32"}}, "gamma_initializer": {"class_name": "Ones", "config": {"dtype": "float32"}}, "moving_mean_initializer": {"class_name": "Zeros", "config": {"dtype": "float32"}}, "moving_variance_initializer": {"class_name": "Ones", "config": {"dtype": "float32"}}, "beta_regularizer": null, "gamma_regularizer": null, "beta_constraint": null, "gamma_constraint": null}, "inbound_nodes": [[["Block35_1_Branch_2_Conv2d_0a_1x1", 0, 0, {}]]]}, {"name": "Block35_1_Branch_2_Conv2d_0a_1x1_Activation", "class_name": "Activation", "config": {"name": "Block35_1_Branch_2_Conv2d_0a_1x1_Activation", "trainable": true, "dtype": "float32", "activation": "relu"}, "inbound_nodes": [[["Block35_1_Branch_2_Conv2d_0a_1x1_BatchNorm", 0, 0, {}]]]}, {"name": "Block35_1_Branch_1_Conv2d_0a_1x1", "class_name": "Conv2D", "config": {"name": "Block35_1_Branch_1_Conv2d_0a_1x1", "trainable": true, "dtype": "float32", "filters": 32, "kernel_size": [1, 1], "strides": [1, 1], "padding": "same", "data_format": "channels_last", "dilation_rate": [1, 1], "activation": "linear", "use_bias": false, "kernel_initializer": {"class_name": "GlorotUniform", "config": {"seed": null, "dtype": "float32"}}, "bias_initializer": {"class_name": "Zeros", "config": {"dtype": "float32"}}, "kernel_regularizer": null, "bias_regularizer": null, "activity_regularizer": null, "kernel_constraint": null, "bias_constraint": null}, "inbound_nodes": [[["Conv2d_4b_3x3_Activation", 0, 0, {}]]]}, {"name": "Block35_1_Branch_2_Conv2d_0b_3x3", "class_name": "Conv2D", "config": {"name": "Block35_1_Branch_2_Conv2d_0b_3x3", "trainable": true, "dtype": "float32", "filters": 32, "kernel_size": [3, 3], "strides": [1, 1], "padding": "same", "data_format": "channels_last", "dilation_rate": [1, 1], "activation": "linear", "use_bias": false, "kernel_initializer": {"class_name": "GlorotUniform", "config": {"seed": null, "dtype": "float32"}}, "bias_initializer": {"class_name": "Zeros", "config": {"dtype": "float32"}}, "kernel_regularizer": null, "bias_regularizer": null, "activity_regularizer": null, "kernel_constraint": null, "bias_constraint": null}, "inbound_nodes": [[["Block35_1_Branch_2_Conv2d_0a_1x1_Activation", 0, 0, {}]]]}, {"name": "Block35_1_Branch_1_Conv2d_0a_1x1_BatchNorm", "class_name": "BatchNormalization", "config": {"name": "Block35_1_Branch_1_Conv2d_0a_1x1_BatchNorm", "trainable": true, "dtype": "float32", "axis": [3], "momentum": 0.995, "epsilon": 0.001, "center": true, "scale": false, "beta_initializer": {"class_name": "Zeros", "config": {"dtype": "float32"}}, "gamma_initializer": {"class_name": "Ones", "config": {"dtype": "float32"}}, "moving_mean_initializer": {"class_name": "Zeros", "config": {"dtype": "float32"}}, "moving_variance_initializer": {"class_name": "Ones", "config": {"dtype": "float32"}}, "beta_regularizer": null, "gamma_regularizer": null, "beta_constraint": null, "gamma_constraint": null}, "inbound_nodes": [[["Block35_1_Branch_1_Conv2d_0a_1x1", 0, 0, {}]]]}, {"name": "Block35_1_Branch_2_Conv2d_0b_3x3_BatchNorm", "class_name": "BatchNormalization", "config": {"name": "Block35_1_Branch_2_Conv2d_0b_3x3_BatchNorm", "trainable": true, "dtype": "float32", "axis": [3], "momentum": 0.995, "epsilon": 0.001, "center": true, "scale": false, "beta_initializer": {"class_name": "Zeros", "config": {"dtype": "float32"}}, "gamma_initializer": {"class_name": "Ones", "config": {"dtype": "float32"}}, "moving_mean_initializer": {"class_name": "Zeros", "config": {"dtype": "float32"}}, "moving_variance_initializer": {"class_name": "Ones", "config": {"dtype": "float32"}}, "beta_regularizer": null, "gamma_regularizer": null, "beta_constraint": null, "gamma_constraint": null}, "inbound_nodes": [[["Block35_1_Branch_2_Conv2d_0b_3x3", 0, 0, {}]]]}, {"name": "Block35_1_Branch_1_Conv2d_0a_1x1_Activation", "class_name": "Activation", "config": {"name": "Block35_1_Branch_1_Conv2d_0a_1x1_Activation", "trainable": true, "dtype": "float32", "activation": "relu"}, "inbound_nodes": [[["Block35_1_Branch_1_Conv2d_0a_1x1_BatchNorm", 0, 0, {}]]]}, {"name": "Block35_1_Branch_2_Conv2d_0b_3x3_Activation", "class_name": "Activation", "config": {"name": "Block35_1_Branch_2_Conv2d_0b_3x3_Activation", "trainable": true, "dtype": "float32", "activation": "relu"}, "inbound_nodes": [[["Block35_1_Branch_2_Conv2d_0b_3x3_BatchNorm", 0, 0, {}]]]}, {"name": "Block35_1_Branch_0_Conv2d_1x1", "class_name": "Conv2D", "config": {"name": "Block35_1_Branch_0_Conv2d_1x1", "trainable": true, "dtype": "float32", "filters": 32, "kernel_size": [1, 1], "strides": [1, 1], "padding": "same", "data_format": "channels_last", "dilation_rate": [1, 1], "activation": "linear", "use_bias": false, "kernel_initializer": {"class_name": "GlorotUniform", "config": {"seed": null, "dtype": "float32"}}, "bias_initializer": {"class_name": "Zeros", "config": {"dtype": "float32"}}, "kernel_regularizer": null, "bias_regularizer": null, "activity_regularizer": null, "kernel_constraint": null, "bias_constraint": null}, "inbound_nodes": [[["Conv2d_4b_3x3_Activation", 0, 0, {}]]]}, {"name": "Block35_1_Branch_1_Conv2d_0b_3x3", "class_name": "Conv2D", "config": {"name": "Block35_1_Branch_1_Conv2d_0b_3x3", "trainable": true, "dtype": "float32", "filters": 32, "kernel_size": [3, 3], "strides": [1, 1], "padding": "same", "data_format": "channels_last", "dilation_rate": [1, 1], "activation": "linear", "use_bias": false, "kernel_initializer": {"class_name": "GlorotUniform", "config": {"seed": null, "dtype": "float32"}}, "bias_initializer": {"class_name": "Zeros", "config": {"dtype": "float32"}}, "kernel_regularizer": null, "bias_regularizer": null, "activity_regularizer": null, "kernel_constraint": null, "bias_constraint": null}, "inbound_nodes": [[["Block35_1_Branch_1_Conv2d_0a_1x1_Activation", 0, 0, {}]]]}, {"name": "Block35_1_Branch_2_Conv2d_0c_3x3", "class_name": "Conv2D", "config": {"name": "Block35_1_Branch_2_Conv2d_0c_3x3", "trainable": true, "dtype": "float32", "filters": 32, "kernel_size": [3, 3], "strides": [1, 1], "padding": "same", "data_format": "channels_last", "dilation_rate": [1, 1], "activation": "linear", "use_bias": false, "kernel_initializer": {"class_name": "GlorotUniform", "config": {"seed": null, "dtype": "float32"}}, "bias_initializer": {"class_name": "Zeros", "config": {"dtype": "float32"}}, "kernel_regularizer": null, "bias_regularizer": null, "activity_regularizer": null, "kernel_constraint": null, "bias_constraint": null}, "inbound_nodes": [[["Block35_1_Branch_2_Conv2d_0b_3x3_Activation", 0, 0, {}]]]}, {"name": "Block35_1_Branch_0_Conv2d_1x1_BatchNorm", "class_name": "BatchNormalization", "config": {"name": "Block35_1_Branch_0_Conv2d_1x1_BatchNorm", "trainable": true, "dtype": "float32", "axis": [3], "momentum": 0.995, "epsilon": 0.001, "center": true, "scale": false, "beta_initializer": {"class_name": "Zeros", "config": {"dtype": "float32"}}, "gamma_initializer": {"class_name": "Ones", "config": {"dtype": "float32"}}, "moving_mean_initializer": {"class_name": "Zeros", "config": {"dtype": "float32"}}, "moving_variance_initializer": {"class_name": "Ones", "config": {"dtype": "float32"}}, "beta_regularizer": null, "gamma_regularizer": null, "beta_constraint": null, "gamma_constraint": null}, "inbound_nodes": [[["Block35_1_Branch_0_Conv2d_1x1", 0, 0, {}]]]}, {"name": "Block35_1_Branch_1_Conv2d_0b_3x3_BatchNorm", "class_name": "BatchNormalization", "config": {"name": "Block35_1_Branch_1_Conv2d_0b_3x3_BatchNorm", "trainable": true, "dtype": "float32", "axis": [3], "momentum": 0.995, "epsilon": 0.001, "center": true, "scale": false, "beta_initializer": {"class_name": "Zeros", "config": {"dtype": "float32"}}, "gamma_initializer": {"class_name": "Ones", "config": {"dtype": "float32"}}, "moving_mean_initializer": {"class_name": "Zeros", "config": {"dtype": "float32"}}, "moving_variance_initializer": {"class_name": "Ones", "config": {"dtype": "float32"}}, "beta_regularizer": null, "gamma_regularizer": null, "beta_constraint": null, "gamma_constraint": null}, "inbound_nodes": [[["Block35_1_Branch_1_Conv2d_0b_3x3", 0, 0, {}]]]}, {"name": "Block35_1_Branch_2_Conv2d_0c_3x3_BatchNorm", "class_name": "BatchNormalization", "config": {"name": "Block35_1_Branch_2_Conv2d_0c_3x3_BatchNorm", "trainable": true, "dtype": "float32", "axis": [3], "momentum": 0.995, "epsilon": 0.001, "center": true, "scale": false, "beta_initializer": {"class_name": "Zeros", "config": {"dtype": "float32"}}, "gamma_initializer": {"class_name": "Ones", "config": {"dtype": "float32"}}, "moving_mean_initializer": {"class_name": "Zeros", "config": {"dtype": "float32"}}, "moving_variance_initializer": {"class_name": "Ones", "config": {"dtype": "float32"}}, "beta_regularizer": null, "gamma_regularizer": null, "beta_constraint": null, "gamma_constraint": null}, "inbound_nodes": [[["Block35_1_Branch_2_Conv2d_0c_3x3", 0, 0, {}]]]}, {"name": "Block35_1_Branch_0_Conv2d_1x1_Activation", "class_name": "Activation", "config": {"name": "Block35_1_Branch_0_Conv2d_1x1_Activation", "trainable": true, "dtype": "float32", "activation": "relu"}, "inbound_nodes": [[["Block35_1_Branch_0_Conv2d_1x1_BatchNorm", 0, 0, {}]]]}, {"name": "Block35_1_Branch_1_Conv2d_0b_3x3_Activation", "class_name": "Activation", "config": {"name": "Block35_1_Branch_1_Conv2d_0b_3x3_Activation", "trainable": true, "dtype": "float32", "activation": "relu"}, "inbound_nodes": [[["Block35_1_Branch_1_Conv2d_0b_3x3_BatchNorm", 0, 0, {}]]]}, {"name": "Block35_1_Branch_2_Conv2d_0c_3x3_Activation", "class_name": "Activation", "config": {"name": "Block35_1_Branch_2_Conv2d_0c_3x3_Activation", "trainable": true, "dtype": "float32", "activation": "relu"}, "inbound_nodes": [[["Block35_1_Branch_2_Conv2d_0c_3x3_BatchNorm", 0, 0, {}]]]}, {"name": "Block35_1_Concatenate", "class_name": "Concatenate", "config": {"name": "Block35_1_Concatenate", "trainable": true, "dtype": "float32", "axis": 3}, "inbound_nodes": [[["Block35_1_Branch_0_Conv2d_1x1_Activation", 0, 0, {}], ["Block35_1_Branch_1_Conv2d_0b_3x3_Activation", 0, 0, {}], ["Block35_1_Branch_2_Conv2d_0c_3x3_Activation", 0, 0, {}]]]}, {"name": "Block35_1_Conv2d_1x1", "class_name": "Conv2D", "config": {"name": "Block35_1_Conv2d_1x1", "trainable": true, "dtype": "float32", "filters": 256, "kernel_size": [1, 1], "strides": [1, 1], "padding": "same", "data_format": "channels_last", "dilation_rate": [1, 1], "activation": "linear", "use_bias": true, "kernel_initializer": {"class_name": "GlorotUniform", "config": {"seed": null, "dtype": "float32"}}, "bias_initializer": {"class_name": "Zeros", "config": {"dtype": "float32"}}, "kernel_regularizer": null, "bias_regularizer": null, "activity_regularizer": null, "kernel_constraint": null, "bias_constraint": null}, "inbound_nodes": [[["Block35_1_Concatenate", 0, 0, {}]]]}, {"name": "hyper_scale", "class_name": "HyperScale", "config": {"name": "hyper_scale", "trainable": true, "dtype": "float32", "value": 0.17}, "inbound_nodes": [[["Block35_1_Conv2d_1x1", 0, 0, {}]]]}, {"name": "add", "class_name": "Add", "config": {"name": "add", "trainable": true, "dtype": "float32"}, "inbound_nodes": [[["Conv2d_4b_3x3_Activation", 0, 0, {}], ["hyper_scale", 0, 0, {}]]]}, {"name": "Block35_1_Activation", "class_name": "Activation", "config": {"name": "Block35_1_Activation", "trainable": true, "dtype": "float32", "activation": "relu"}, "inbound_nodes": [[["add", 0, 0, {}]]]}, {"name": "Block35_2_Branch_2_Conv2d_0a_1x1", "class_name": "Conv2D", "config": {"name": "Block35_2_Branch_2_Conv2d_0a_1x1", "trainable": true, "dtype": "float32", "filters": 32, "kernel_size": [1, 1], "strides": [1, 1], "padding": "same", "data_format": "channels_last", "dilation_rate": [1, 1], "activation": "linear", "use_bias": false, "kernel_initializer": {"class_name": "GlorotUniform", "config": {"seed": null, "dtype": "float32"}}, "bias_initializer": {"class_name": "Zeros", "config": {"dtype": "float32"}}, "kernel_regularizer": null, "bias_regularizer": null, "activity_regularizer": null, "kernel_constraint": null, "bias_constraint": null}, "inbound_nodes": [[["Block35_1_Activation", 0, 0, {}]]]}, {"name": "Block35_2_Branch_2_Conv2d_0a_1x1_BatchNorm", "class_name": "BatchNormalization", "config": {"name": "Block35_2_Branch_2_Conv2d_0a_1x1_BatchNorm", "trainable": true, "dtype": "float32", "axis": [3], "momentum": 0.995, "epsilon": 0.001, "center": true, "scale": false, "beta_initializer": {"class_name": "Zeros", "config": {"dtype": "float32"}}, "gamma_initializer": {"class_name": "Ones", "config": {"dtype": "float32"}}, "moving_mean_initializer": {"class_name": "Zeros", "config": {"dtype": "float32"}}, "moving_variance_initializer": {"class_name": "Ones", "config": {"dtype": "float32"}}, "beta_regularizer": null, "gamma_regularizer": null, "beta_constraint": null, "gamma_constraint": null}, "inbound_nodes": [[["Block35_2_Branch_2_Conv2d_0a_1x1", 0, 0, {}]]]}, {"name": "Block35_2_Branch_2_Conv2d_0a_1x1_Activation", "class_name": "Activation", "config": {"name": "Block35_2_Branch_2_Conv2d_0a_1x1_Activation", "trainable": true, "dtype": "float32", "activation": "relu"}, "inbound_nodes": [[["Block35_2_Branch_2_Conv2d_0a_1x1_BatchNorm", 0, 0, {}]]]}, {"name": "Block35_2_Branch_1_Conv2d_0a_1x1", "class_name": "Conv2D", "config": {"name": "Block35_2_Branch_1_Conv2d_0a_1x1", "trainable": true, "dtype": "float32", "filters": 32, "kernel_size": [1, 1], "strides": [1, 1], "padding": "same", "data_format": "channels_last", "dilation_rate": [1, 1], "activation": "linear", "use_bias": false, "kernel_initializer": {"class_name": "GlorotUniform", "config": {"seed": null, "dtype": "float32"}}, "bias_initializer": {"class_name": "Zeros", "config": {"dtype": "float32"}}, "kernel_regularizer": null, "bias_regularizer": null, "activity_regularizer": null, "kernel_constraint": null, "bias_constraint": null}, "inbound_nodes": [[["Block35_1_Activation", 0, 0, {}]]]}, {"name": "Block35_2_Branch_2_Conv2d_0b_3x3", "class_name": "Conv2D", "config": {"name": "Block35_2_Branch_2_Conv2d_0b_3x3", "trainable": true, "dtype": "float32", "filters": 32, "kernel_size": [3, 3], "strides": [1, 1], "padding": "same", "data_format": "channels_last", "dilation_rate": [1, 1], "activation": "linear", "use_bias": false, "kernel_initializer": {"class_name": "GlorotUniform", "config": {"seed": null, "dtype": "float32"}}, "bias_initializer": {"class_name": "Zeros", "config": {"dtype": "float32"}}, "kernel_regularizer": null, "bias_regularizer": null, "activity_regularizer": null, "kernel_constraint": null, "bias_constraint": null}, "inbound_nodes": [[["Block35_2_Branch_2_Conv2d_0a_1x1_Activation", 0, 0, {}]]]}, {"name": "Block35_2_Branch_1_Conv2d_0a_1x1_BatchNorm", "class_name": "BatchNormalization", "config": {"name": "Block35_2_Branch_1_Conv2d_0a_1x1_BatchNorm", "trainable": true, "dtype": "float32", "axis": [3], "momentum": 0.995, "epsilon": 0.001, "center": true, "scale": false, "beta_initializer": {"class_name": "Zeros", "config": {"dtype": "float32"}}, "gamma_initializer": {"class_name": "Ones", "config": {"dtype": "float32"}}, "moving_mean_initializer": {"class_name": "Zeros", "config": {"dtype": "float32"}}, "moving_variance_initializer": {"class_name": "Ones", "config": {"dtype": "float32"}}, "beta_regularizer": null, "gamma_regularizer": null, "beta_constraint": null, "gamma_constraint": null}, "inbound_nodes": [[["Block35_2_Branch_1_Conv2d_0a_1x1", 0, 0, {}]]]}, {"name": "Block35_2_Branch_2_Conv2d_0b_3x3_BatchNorm", "class_name": "BatchNormalization", "config": {"name": "Block35_2_Branch_2_Conv2d_0b_3x3_BatchNorm", "trainable": true, "dtype": "float32", "axis": [3], "momentum": 0.995, "epsilon": 0.001, "center": true, "scale": false, "beta_initializer": {"class_name": "Zeros", "config": {"dtype": "float32"}}, "gamma_initializer": {"class_name": "Ones", "config": {"dtype": "float32"}}, "moving_mean_initializer": {"class_name": "Zeros", "config": {"dtype": "float32"}}, "moving_variance_initializer": {"class_name": "Ones", "config": {"dtype": "float32"}}, "beta_regularizer": null, "gamma_regularizer": null, "beta_constraint": null, "gamma_constraint": null}, "inbound_nodes": [[["Block35_2_Branch_2_Conv2d_0b_3x3", 0, 0, {}]]]}, {"name": "Block35_2_Branch_1_Conv2d_0a_1x1_Activation", "class_name": "Activation", "config": {"name": "Block35_2_Branch_1_Conv2d_0a_1x1_Activation", "trainable": true, "dtype": "float32", "activation": "relu"}, "inbound_nodes": [[["Block35_2_Branch_1_Conv2d_0a_1x1_BatchNorm", 0, 0, {}]]]}, {"name": "Block35_2_Branch_2_Conv2d_0b_3x3_Activation", "class_name": "Activation", "config": {"name": "Block35_2_Branch_2_Conv2d_0b_3x3_Activation", "trainable": true, "dtype": "float32", "activation": "relu"}, "inbound_nodes": [[["Block35_2_Branch_2_Conv2d_0b_3x3_BatchNorm", 0, 0, {}]]]}, {"name": "Block35_2_Branch_0_Conv2d_1x1", "class_name": "Conv2D", "config": {"name": "Block35_2_Branch_0_Conv2d_1x1", "trainable": true, "dtype": "float32", "filters": 32, "kernel_size": [1, 1], "strides": [1, 1], "padding": "same", "data_format": "channels_last", "dilation_rate": [1, 1], "activation": "linear", "use_bias": false, "kernel_initializer": {"class_name": "GlorotUniform", "config": {"seed": null, "dtype": "float32"}}, "bias_initializer": {"class_name": "Zeros", "config": {"dtype": "float32"}}, "kernel_regularizer": null, "bias_regularizer": null, "activity_regularizer": null, "kernel_constraint": null, "bias_constraint": null}, "inbound_nodes": [[["Block35_1_Activation", 0, 0, {}]]]}, {"name": "Block35_2_Branch_1_Conv2d_0b_3x3", "class_name": "Conv2D", "config": {"name": "Block35_2_Branch_1_Conv2d_0b_3x3", "trainable": true, "dtype": "float32", "filters": 32, "kernel_size": [3, 3], "strides": [1, 1], "padding": "same", "data_format": "channels_last", "dilation_rate": [1, 1], "activation": "linear", "use_bias": false, "kernel_initializer": {"class_name": "GlorotUniform", "config": {"seed": null, "dtype": "float32"}}, "bias_initializer": {"class_name": "Zeros", "config": {"dtype": "float32"}}, "kernel_regularizer": null, "bias_regularizer": null, "activity_regularizer": null, "kernel_constraint": null, "bias_constraint": null}, "inbound_nodes": [[["Block35_2_Branch_1_Conv2d_0a_1x1_Activation", 0, 0, {}]]]}, {"name": "Block35_2_Branch_2_Conv2d_0c_3x3", "class_name": "Conv2D", "config": {"name": "Block35_2_Branch_2_Conv2d_0c_3x3", "trainable": true, "dtype": "float32", "filters": 32, "kernel_size": [3, 3], "strides": [1, 1], "padding": "same", "data_format": "channels_last", "dilation_rate": [1, 1], "activation": "linear", "use_bias": false, "kernel_initializer": {"class_name": "GlorotUniform", "config": {"seed": null, "dtype": "float32"}}, "bias_initializer": {"class_name": "Zeros", "config": {"dtype": "float32"}}, "kernel_regularizer": null, "bias_regularizer": null, "activity_regularizer": null, "kernel_constraint": null, "bias_constraint": null}, "inbound_nodes": [[["Block35_2_Branch_2_Conv2d_0b_3x3_Activation", 0, 0, {}]]]}, {"name": "Block35_2_Branch_0_Conv2d_1x1_BatchNorm", "class_name": "BatchNormalization", "config": {"name": "Block35_2_Branch_0_Conv2d_1x1_BatchNorm", "trainable": true, "dtype": "float32", "axis": [3], "momentum": 0.995, "epsilon": 0.001, "center": true, "scale": false, "beta_initializer": {"class_name": "Zeros", "config": {"dtype": "float32"}}, "gamma_initializer": {"class_name": "Ones", "config": {"dtype": "float32"}}, "moving_mean_initializer": {"class_name": "Zeros", "config": {"dtype": "float32"}}, "moving_variance_initializer": {"class_name": "Ones", "config": {"dtype": "float32"}}, "beta_regularizer": null, "gamma_regularizer": null, "beta_constraint": null, "gamma_constraint": null}, "inbound_nodes": [[["Block35_2_Branch_0_Conv2d_1x1", 0, 0, {}]]]}, {"name": "Block35_2_Branch_1_Conv2d_0b_3x3_BatchNorm", "class_name": "BatchNormalization", "config": {"name": "Block35_2_Branch_1_Conv2d_0b_3x3_BatchNorm", "trainable": true, "dtype": "float32", "axis": [3], "momentum": 0.995, "epsilon": 0.001, "center": true, "scale": false, "beta_initializer": {"class_name": "Zeros", "config": {"dtype": "float32"}}, "gamma_initializer": {"class_name": "Ones", "config": {"dtype": "float32"}}, "moving_mean_initializer": {"class_name": "Zeros", "config": {"dtype": "float32"}}, "moving_variance_initializer": {"class_name": "Ones", "config": {"dtype": "float32"}}, "beta_regularizer": null, "gamma_regularizer": null, "beta_constraint": null, "gamma_constraint": null}, "inbound_nodes": [[["Block35_2_Branch_1_Conv2d_0b_3x3", 0, 0, {}]]]}, {"name": "Block35_2_Branch_2_Conv2d_0c_3x3_BatchNorm", "class_name": "BatchNormalization", "config": {"name": "Block35_2_Branch_2_Conv2d_0c_3x3_BatchNorm", "trainable": true, "dtype": "float32", "axis": [3], "momentum": 0.995, "epsilon": 0.001, "center": true, "scale": false, "beta_initializer": {"class_name": "Zeros", "config": {"dtype": "float32"}}, "gamma_initializer": {"class_name": "Ones", "config": {"dtype": "float32"}}, "moving_mean_initializer": {"class_name": "Zeros", "config": {"dtype": "float32"}}, "moving_variance_initializer": {"class_name": "Ones", "config": {"dtype": "float32"}}, "beta_regularizer": null, "gamma_regularizer": null, "beta_constraint": null, "gamma_constraint": null}, "inbound_nodes": [[["Block35_2_Branch_2_Conv2d_0c_3x3", 0, 0, {}]]]}, {"name": "Block35_2_Branch_0_Conv2d_1x1_Activation", "class_name": "Activation", "config": {"name": "Block35_2_Branch_0_Conv2d_1x1_Activation", "trainable": true, "dtype": "float32", "activation": "relu"}, "inbound_nodes": [[["Block35_2_Branch_0_Conv2d_1x1_BatchNorm", 0, 0, {}]]]}, {"name": "Block35_2_Branch_1_Conv2d_0b_3x3_Activation", "class_name": "Activation", "config": {"name": "Block35_2_Branch_1_Conv2d_0b_3x3_Activation", "trainable": true, "dtype": "float32", "activation": "relu"}, "inbound_nodes": [[["Block35_2_Branch_1_Conv2d_0b_3x3_BatchNorm", 0, 0, {}]]]}, {"name": "Block35_2_Branch_2_Conv2d_0c_3x3_Activation", "class_name": "Activation", "config": {"name": "Block35_2_Branch_2_Conv2d_0c_3x3_Activation", "trainable": true, "dtype": "float32", "activation": "relu"}, "inbound_nodes": [[["Block35_2_Branch_2_Conv2d_0c_3x3_BatchNorm", 0, 0, {}]]]}, {"name": "Block35_2_Concatenate", "class_name": "Concatenate", "config": {"name": "Block35_2_Concatenate", "trainable": true, "dtype": "float32", "axis": 3}, "inbound_nodes": [[["Block35_2_Branch_0_Conv2d_1x1_Activation", 0, 0, {}], ["Block35_2_Branch_1_Conv2d_0b_3x3_Activation", 0, 0, {}], ["Block35_2_Branch_2_Conv2d_0c_3x3_Activation", 0, 0, {}]]]}, {"name": "Block35_2_Conv2d_1x1", "class_name": "Conv2D", "config": {"name": "Block35_2_Conv2d_1x1", "trainable": true, "dtype": "float32", "filters": 256, "kernel_size": [1, 1], "strides": [1, 1], "padding": "same", "data_format": "channels_last", "dilation_rate": [1, 1], "activation": "linear", "use_bias": true, "kernel_initializer": {"class_name": "GlorotUniform", "config": {"seed": null, "dtype": "float32"}}, "bias_initializer": {"class_name": "Zeros", "config": {"dtype": "float32"}}, "kernel_regularizer": null, "bias_regularizer": null, "activity_regularizer": null, "kernel_constraint": null, "bias_constraint": null}, "inbound_nodes": [[["Block35_2_Concatenate", 0, 0, {}]]]}, {"name": "hyper_scale_1", "class_name": "HyperScale", "config": {"name": "hyper_scale_1", "trainable": true, "dtype": "float32", "value": 0.17}, "inbound_nodes": [[["Block35_2_Conv2d_1x1", 0, 0, {}]]]}, {"name": "add_1", "class_name": "Add", "config": {"name": "add_1", "trainable": true, "dtype": "float32"}, "inbound_nodes": [[["Block35_1_Activation", 0, 0, {}], ["hyper_scale_1", 0, 0, {}]]]}, {"name": "Block35_2_Activation", "class_name": "Activation", "config": {"name": "Block35_2_Activation", "trainable": true, "dtype": "float32", "activation": "relu"}, "inbound_nodes": [[["add_1", 0, 0, {}]]]}, {"name": "Block35_3_Branch_2_Conv2d_0a_1x1", "class_name": "Conv2D", "config": {"name": "Block35_3_Branch_2_Conv2d_0a_1x1", "trainable": true, "dtype": "float32", "filters": 32, "kernel_size": [1, 1], "strides": [1, 1], "padding": "same", "data_format": "channels_last", "dilation_rate": [1, 1], "activation": "linear", "use_bias": false, "kernel_initializer": {"class_name": "GlorotUniform", "config": {"seed": null, "dtype": "float32"}}, "bias_initializer": {"class_name": "Zeros", "config": {"dtype": "float32"}}, "kernel_regularizer": null, "bias_regularizer": null, "activity_regularizer": null, "kernel_constraint": null, "bias_constraint": null}, "inbound_nodes": [[["Block35_2_Activation", 0, 0, {}]]]}, {"name": "Block35_3_Branch_2_Conv2d_0a_1x1_BatchNorm", "class_name": "BatchNormalization", "config": {"name": "Block35_3_Branch_2_Conv2d_0a_1x1_BatchNorm", "trainable": true, "dtype": "float32", "axis": [3], "momentum": 0.995, "epsilon": 0.001, "center": true, "scale": false, "beta_initializer": {"class_name": "Zeros", "config": {"dtype": "float32"}}, "gamma_initializer": {"class_name": "Ones", "config": {"dtype": "float32"}}, "moving_mean_initializer": {"class_name": "Zeros", "config": {"dtype": "float32"}}, "moving_variance_initializer": {"class_name": "Ones", "config": {"dtype": "float32"}}, "beta_regularizer": null, "gamma_regularizer": null, "beta_constraint": null, "gamma_constraint": null}, "inbound_nodes": [[["Block35_3_Branch_2_Conv2d_0a_1x1", 0, 0, {}]]]}, {"name": "Block35_3_Branch_2_Conv2d_0a_1x1_Activation", "class_name": "Activation", "config": {"name": "Block35_3_Branch_2_Conv2d_0a_1x1_Activation", "trainable": true, "dtype": "float32", "activation": "relu"}, "inbound_nodes": [[["Block35_3_Branch_2_Conv2d_0a_1x1_BatchNorm", 0, 0, {}]]]}, {"name": "Block35_3_Branch_1_Conv2d_0a_1x1", "class_name": "Conv2D", "config": {"name": "Block35_3_Branch_1_Conv2d_0a_1x1", "trainable": true, "dtype": "float32", "filters": 32, "kernel_size": [1, 1], "strides": [1, 1], "padding": "same", "data_format": "channels_last", "dilation_rate": [1, 1], "activation": "linear", "use_bias": false, "kernel_initializer": {"class_name": "GlorotUniform", "config": {"seed": null, "dtype": "float32"}}, "bias_initializer": {"class_name": "Zeros", "config": {"dtype": "float32"}}, "kernel_regularizer": null, "bias_regularizer": null, "activity_regularizer": null, "kernel_constraint": null, "bias_constraint": null}, "inbound_nodes": [[["Block35_2_Activation", 0, 0, {}]]]}, {"name": "Block35_3_Branch_2_Conv2d_0b_3x3", "class_name": "Conv2D", "config": {"name": "Block35_3_Branch_2_Conv2d_0b_3x3", "trainable": true, "dtype": "float32", "filters": 32, "kernel_size": [3, 3], "strides": [1, 1], "padding": "same", "data_format": "channels_last", "dilation_rate": [1, 1], "activation": "linear", "use_bias": false, "kernel_initializer": {"class_name": "GlorotUniform", "config": {"seed": null, "dtype": "float32"}}, "bias_initializer": {"class_name": "Zeros", "config": {"dtype": "float32"}}, "kernel_regularizer": null, "bias_regularizer": null, "activity_regularizer": null, "kernel_constraint": null, "bias_constraint": null}, "inbound_nodes": [[["Block35_3_Branch_2_Conv2d_0a_1x1_Activation", 0, 0, {}]]]}, {"name": "Block35_3_Branch_1_Conv2d_0a_1x1_BatchNorm", "class_name": "BatchNormalization", "config": {"name": "Block35_3_Branch_1_Conv2d_0a_1x1_BatchNorm", "trainable": true, "dtype": "float32", "axis": [3], "momentum": 0.995, "epsilon": 0.001, "center": true, "scale": false, "beta_initializer": {"class_name": "Zeros", "config": {"dtype": "float32"}}, "gamma_initializer": {"class_name": "Ones", "config": {"dtype": "float32"}}, "moving_mean_initializer": {"class_name": "Zeros", "config": {"dtype": "float32"}}, "moving_variance_initializer": {"class_name": "Ones", "config": {"dtype": "float32"}}, "beta_regularizer": null, "gamma_regularizer": null, "beta_constraint": null, "gamma_constraint": null}, "inbound_nodes": [[["Block35_3_Branch_1_Conv2d_0a_1x1", 0, 0, {}]]]}, {"name": "Block35_3_Branch_2_Conv2d_0b_3x3_BatchNorm", "class_name": "BatchNormalization", "config": {"name": "Block35_3_Branch_2_Conv2d_0b_3x3_BatchNorm", "trainable": true, "dtype": "float32", "axis": [3], "momentum": 0.995, "epsilon": 0.001, "center": true, "scale": false, "beta_initializer": {"class_name": "Zeros", "config": {"dtype": "float32"}}, "gamma_initializer": {"class_name": "Ones", "config": {"dtype": "float32"}}, "moving_mean_initializer": {"class_name": "Zeros", "config": {"dtype": "float32"}}, "moving_variance_initializer": {"class_name": "Ones", "config": {"dtype": "float32"}}, "beta_regularizer": null, "gamma_regularizer": null, "beta_constraint": null, "gamma_constraint": null}, "inbound_nodes": [[["Block35_3_Branch_2_Conv2d_0b_3x3", 0, 0, {}]]]}, {"name": "Block35_3_Branch_1_Conv2d_0a_1x1_Activation", "class_name": "Activation", "config": {"name": "Block35_3_Branch_1_Conv2d_0a_1x1_Activation", "trainable": true, "dtype": "float32", "activation": "relu"}, "inbound_nodes": [[["Block35_3_Branch_1_Conv2d_0a_1x1_BatchNorm", 0, 0, {}]]]}, {"name": "Block35_3_Branch_2_Conv2d_0b_3x3_Activation", "class_name": "Activation", "config": {"name": "Block35_3_Branch_2_Conv2d_0b_3x3_Activation", "trainable": true, "dtype": "float32", "activation": "relu"}, "inbound_nodes": [[["Block35_3_Branch_2_Conv2d_0b_3x3_BatchNorm", 0, 0, {}]]]}, {"name": "Block35_3_Branch_0_Conv2d_1x1", "class_name": "Conv2D", "config": {"name": "Block35_3_Branch_0_Conv2d_1x1", "trainable": true, "dtype": "float32", "filters": 32, "kernel_size": [1, 1], "strides": [1, 1], "padding": "same", "data_format": "channels_last", "dilation_rate": [1, 1], "activation": "linear", "use_bias": false, "kernel_initializer": {"class_name": "GlorotUniform", "config": {"seed": null, "dtype": "float32"}}, "bias_initializer": {"class_name": "Zeros", "config": {"dtype": "float32"}}, "kernel_regularizer": null, "bias_regularizer": null, "activity_regularizer": null, "kernel_constraint": null, "bias_constraint": null}, "inbound_nodes": [[["Block35_2_Activation", 0, 0, {}]]]}, {"name": "Block35_3_Branch_1_Conv2d_0b_3x3", "class_name": "Conv2D", "config": {"name": "Block35_3_Branch_1_Conv2d_0b_3x3", "trainable": true, "dtype": "float32", "filters": 32, "kernel_size": [3, 3], "strides": [1, 1], "padding": "same", "data_format": "channels_last", "dilation_rate": [1, 1], "activation": "linear", "use_bias": false, "kernel_initializer": {"class_name": "GlorotUniform", "config": {"seed": null, "dtype": "float32"}}, "bias_initializer": {"class_name": "Zeros", "config": {"dtype": "float32"}}, "kernel_regularizer": null, "bias_regularizer": null, "activity_regularizer": null, "kernel_constraint": null, "bias_constraint": null}, "inbound_nodes": [[["Block35_3_Branch_1_Conv2d_0a_1x1_Activation", 0, 0, {}]]]}, {"name": "Block35_3_Branch_2_Conv2d_0c_3x3", "class_name": "Conv2D", "config": {"name": "Block35_3_Branch_2_Conv2d_0c_3x3", "trainable": true, "dtype": "float32", "filters": 32, "kernel_size": [3, 3], "strides": [1, 1], "padding": "same", "data_format": "channels_last", "dilation_rate": [1, 1], "activation": "linear", "use_bias": false, "kernel_initializer": {"class_name": "GlorotUniform", "config": {"seed": null, "dtype": "float32"}}, "bias_initializer": {"class_name": "Zeros", "config": {"dtype": "float32"}}, "kernel_regularizer": null, "bias_regularizer": null, "activity_regularizer": null, "kernel_constraint": null, "bias_constraint": null}, "inbound_nodes": [[["Block35_3_Branch_2_Conv2d_0b_3x3_Activation", 0, 0, {}]]]}, {"name": "Block35_3_Branch_0_Conv2d_1x1_BatchNorm", "class_name": "BatchNormalization", "config": {"name": "Block35_3_Branch_0_Conv2d_1x1_BatchNorm", "trainable": true, "dtype": "float32", "axis": [3], "momentum": 0.995, "epsilon": 0.001, "center": true, "scale": false, "beta_initializer": {"class_name": "Zeros", "config": {"dtype": "float32"}}, "gamma_initializer": {"class_name": "Ones", "config": {"dtype": "float32"}}, "moving_mean_initializer": {"class_name": "Zeros", "config": {"dtype": "float32"}}, "moving_variance_initializer": {"class_name": "Ones", "config": {"dtype": "float32"}}, "beta_regularizer": null, "gamma_regularizer": null, "beta_constraint": null, "gamma_constraint": null}, "inbound_nodes": [[["Block35_3_Branch_0_Conv2d_1x1", 0, 0, {}]]]}, {"name": "Block35_3_Branch_1_Conv2d_0b_3x3_BatchNorm", "class_name": "BatchNormalization", "config": {"name": "Block35_3_Branch_1_Conv2d_0b_3x3_BatchNorm", "trainable": true, "dtype": "float32", "axis": [3], "momentum": 0.995, "epsilon": 0.001, "center": true, "scale": false, "beta_initializer": {"class_name": "Zeros", "config": {"dtype": "float32"}}, "gamma_initializer": {"class_name": "Ones", "config": {"dtype": "float32"}}, "moving_mean_initializer": {"class_name": "Zeros", "config": {"dtype": "float32"}}, "moving_variance_initializer": {"class_name": "Ones", "config": {"dtype": "float32"}}, "beta_regularizer": null, "gamma_regularizer": null, "beta_constraint": null, "gamma_constraint": null}, "inbound_nodes": [[["Block35_3_Branch_1_Conv2d_0b_3x3", 0, 0, {}]]]}, {"name": "Block35_3_Branch_2_Conv2d_0c_3x3_BatchNorm", "class_name": "BatchNormalization", "config": {"name": "Block35_3_Branch_2_Conv2d_0c_3x3_BatchNorm", "trainable": true, "dtype": "float32", "axis": [3], "momentum": 0.995, "epsilon": 0.001, "center": true, "scale": false, "beta_initializer": {"class_name": "Zeros", "config": {"dtype": "float32"}}, "gamma_initializer": {"class_name": "Ones", "config": {"dtype": "float32"}}, "moving_mean_initializer": {"class_name": "Zeros", "config": {"dtype": "float32"}}, "moving_variance_initializer": {"class_name": "Ones", "config": {"dtype": "float32"}}, "beta_regularizer": null, "gamma_regularizer": null, "beta_constraint": null, "gamma_constraint": null}, "inbound_nodes": [[["Block35_3_Branch_2_Conv2d_0c_3x3", 0, 0, {}]]]}, {"name": "Block35_3_Branch_0_Conv2d_1x1_Activation", "class_name": "Activation", "config": {"name": "Block35_3_Branch_0_Conv2d_1x1_Activation", "trainable": true, "dtype": "float32", "activation": "relu"}, "inbound_nodes": [[["Block35_3_Branch_0_Conv2d_1x1_BatchNorm", 0, 0, {}]]]}, {"name": "Block35_3_Branch_1_Conv2d_0b_3x3_Activation", "class_name": "Activation", "config": {"name": "Block35_3_Branch_1_Conv2d_0b_3x3_Activation", "trainable": true, "dtype": "float32", "activation": "relu"}, "inbound_nodes": [[["Block35_3_Branch_1_Conv2d_0b_3x3_BatchNorm", 0, 0, {}]]]}, {"name": "Block35_3_Branch_2_Conv2d_0c_3x3_Activation", "class_name": "Activation", "config": {"name": "Block35_3_Branch_2_Conv2d_0c_3x3_Activation", "trainable": true, "dtype": "float32", "activation": "relu"}, "inbound_nodes": [[["Block35_3_Branch_2_Conv2d_0c_3x3_BatchNorm", 0, 0, {}]]]}, {"name": "Block35_3_Concatenate", "class_name": "Concatenate", "config": {"name": "Block35_3_Concatenate", "trainable": true, "dtype": "float32", "axis": 3}, "inbound_nodes": [[["Block35_3_Branch_0_Conv2d_1x1_Activation", 0, 0, {}], ["Block35_3_Branch_1_Conv2d_0b_3x3_Activation", 0, 0, {}], ["Block35_3_Branch_2_Conv2d_0c_3x3_Activation", 0, 0, {}]]]}, {"name": "Block35_3_Conv2d_1x1", "class_name": "Conv2D", "config": {"name": "Block35_3_Conv2d_1x1", "trainable": true, "dtype": "float32", "filters": 256, "kernel_size": [1, 1], "strides": [1, 1], "padding": "same", "data_format": "channels_last", "dilation_rate": [1, 1], "activation": "linear", "use_bias": true, "kernel_initializer": {"class_name": "GlorotUniform", "config": {"seed": null, "dtype": "float32"}}, "bias_initializer": {"class_name": "Zeros", "config": {"dtype": "float32"}}, "kernel_regularizer": null, "bias_regularizer": null, "activity_regularizer": null, "kernel_constraint": null, "bias_constraint": null}, "inbound_nodes": [[["Block35_3_Concatenate", 0, 0, {}]]]}, {"name": "hyper_scale_2", "class_name": "HyperScale", "config": {"name": "hyper_scale_2", "trainable": true, "dtype": "float32", "value": 0.17}, "inbound_nodes": [[["Block35_3_Conv2d_1x1", 0, 0, {}]]]}, {"name": "add_2", "class_name": "Add", "config": {"name": "add_2", "trainable": true, "dtype": "float32"}, "inbound_nodes": [[["Block35_2_Activation", 0, 0, {}], ["hyper_scale_2", 0, 0, {}]]]}, {"name": "Block35_3_Activation", "class_name": "Activation", "config": {"name": "Block35_3_Activation", "trainable": true, "dtype": "float32", "activation": "relu"}, "inbound_nodes": [[["add_2", 0, 0, {}]]]}, {"name": "Block35_4_Branch_2_Conv2d_0a_1x1", "class_name": "Conv2D", "config": {"name": "Block35_4_Branch_2_Conv2d_0a_1x1", "trainable": true, "dtype": "float32", "filters": 32, "kernel_size": [1, 1], "strides": [1, 1], "padding": "same", "data_format": "channels_last", "dilation_rate": [1, 1], "activation": "linear", "use_bias": false, "kernel_initializer": {"class_name": "GlorotUniform", "config": {"seed": null, "dtype": "float32"}}, "bias_initializer": {"class_name": "Zeros", "config": {"dtype": "float32"}}, "kernel_regularizer": null, "bias_regularizer": null, "activity_regularizer": null, "kernel_constraint": null, "bias_constraint": null}, "inbound_nodes": [[["Block35_3_Activation", 0, 0, {}]]]}, {"name": "Block35_4_Branch_2_Conv2d_0a_1x1_BatchNorm", "class_name": "BatchNormalization", "config": {"name": "Block35_4_Branch_2_Conv2d_0a_1x1_BatchNorm", "trainable": true, "dtype": "float32", "axis": [3], "momentum": 0.995, "epsilon": 0.001, "center": true, "scale": false, "beta_initializer": {"class_name": "Zeros", "config": {"dtype": "float32"}}, "gamma_initializer": {"class_name": "Ones", "config": {"dtype": "float32"}}, "moving_mean_initializer": {"class_name": "Zeros", "config": {"dtype": "float32"}}, "moving_variance_initializer": {"class_name": "Ones", "config": {"dtype": "float32"}}, "beta_regularizer": null, "gamma_regularizer": null, "beta_constraint": null, "gamma_constraint": null}, "inbound_nodes": [[["Block35_4_Branch_2_Conv2d_0a_1x1", 0, 0, {}]]]}, {"name": "Block35_4_Branch_2_Conv2d_0a_1x1_Activation", "class_name": "Activation", "config": {"name": "Block35_4_Branch_2_Conv2d_0a_1x1_Activation", "trainable": true, "dtype": "float32", "activation": "relu"}, "inbound_nodes": [[["Block35_4_Branch_2_Conv2d_0a_1x1_BatchNorm", 0, 0, {}]]]}, {"name": "Block35_4_Branch_1_Conv2d_0a_1x1", "class_name": "Conv2D", "config": {"name": "Block35_4_Branch_1_Conv2d_0a_1x1", "trainable": true, "dtype": "float32", "filters": 32, "kernel_size": [1, 1], "strides": [1, 1], "padding": "same", "data_format": "channels_last", "dilation_rate": [1, 1], "activation": "linear", "use_bias": false, "kernel_initializer": {"class_name": "GlorotUniform", "config": {"seed": null, "dtype": "float32"}}, "bias_initializer": {"class_name": "Zeros", "config": {"dtype": "float32"}}, "kernel_regularizer": null, "bias_regularizer": null, "activity_regularizer": null, "kernel_constraint": null, "bias_constraint": null}, "inbound_nodes": [[["Block35_3_Activation", 0, 0, {}]]]}, {"name": "Block35_4_Branch_2_Conv2d_0b_3x3", "class_name": "Conv2D", "config": {"name": "Block35_4_Branch_2_Conv2d_0b_3x3", "trainable": true, "dtype": "float32", "filters": 32, "kernel_size": [3, 3], "strides": [1, 1], "padding": "same", "data_format": "channels_last", "dilation_rate": [1, 1], "activation": "linear", "use_bias": false, "kernel_initializer": {"class_name": "GlorotUniform", "config": {"seed": null, "dtype": "float32"}}, "bias_initializer": {"class_name": "Zeros", "config": {"dtype": "float32"}}, "kernel_regularizer": null, "bias_regularizer": null, "activity_regularizer": null, "kernel_constraint": null, "bias_constraint": null}, "inbound_nodes": [[["Block35_4_Branch_2_Conv2d_0a_1x1_Activation", 0, 0, {}]]]}, {"name": "Block35_4_Branch_1_Conv2d_0a_1x1_BatchNorm", "class_name": "BatchNormalization", "config": {"name": "Block35_4_Branch_1_Conv2d_0a_1x1_BatchNorm", "trainable": true, "dtype": "float32", "axis": [3], "momentum": 0.995, "epsilon": 0.001, "center": true, "scale": false, "beta_initializer": {"class_name": "Zeros", "config": {"dtype": "float32"}}, "gamma_initializer": {"class_name": "Ones", "config": {"dtype": "float32"}}, "moving_mean_initializer": {"class_name": "Zeros", "config": {"dtype": "float32"}}, "moving_variance_initializer": {"class_name": "Ones", "config": {"dtype": "float32"}}, "beta_regularizer": null, "gamma_regularizer": null, "beta_constraint": null, "gamma_constraint": null}, "inbound_nodes": [[["Block35_4_Branch_1_Conv2d_0a_1x1", 0, 0, {}]]]}, {"name": "Block35_4_Branch_2_Conv2d_0b_3x3_BatchNorm", "class_name": "BatchNormalization", "config": {"name": "Block35_4_Branch_2_Conv2d_0b_3x3_BatchNorm", "trainable": true, "dtype": "float32", "axis": [3], "momentum": 0.995, "epsilon": 0.001, "center": true, "scale": false, "beta_initializer": {"class_name": "Zeros", "config": {"dtype": "float32"}}, "gamma_initializer": {"class_name": "Ones", "config": {"dtype": "float32"}}, "moving_mean_initializer": {"class_name": "Zeros", "config": {"dtype": "float32"}}, "moving_variance_initializer": {"class_name": "Ones", "config": {"dtype": "float32"}}, "beta_regularizer": null, "gamma_regularizer": null, "beta_constraint": null, "gamma_constraint": null}, "inbound_nodes": [[["Block35_4_Branch_2_Conv2d_0b_3x3", 0, 0, {}]]]}, {"name": "Block35_4_Branch_1_Conv2d_0a_1x1_Activation", "class_name": "Activation", "config": {"name": "Block35_4_Branch_1_Conv2d_0a_1x1_Activation", "trainable": true, "dtype": "float32", "activation": "relu"}, "inbound_nodes": [[["Block35_4_Branch_1_Conv2d_0a_1x1_BatchNorm", 0, 0, {}]]]}, {"name": "Block35_4_Branch_2_Conv2d_0b_3x3_Activation", "class_name": "Activation", "config": {"name": "Block35_4_Branch_2_Conv2d_0b_3x3_Activation", "trainable": true, "dtype": "float32", "activation": "relu"}, "inbound_nodes": [[["Block35_4_Branch_2_Conv2d_0b_3x3_BatchNorm", 0, 0, {}]]]}, {"name": "Block35_4_Branch_0_Conv2d_1x1", "class_name": "Conv2D", "config": {"name": "Block35_4_Branch_0_Conv2d_1x1", "trainable": true, "dtype": "float32", "filters": 32, "kernel_size": [1, 1], "strides": [1, 1], "padding": "same", "data_format": "channels_last", "dilation_rate": [1, 1], "activation": "linear", "use_bias": false, "kernel_initializer": {"class_name": "GlorotUniform", "config": {"seed": null, "dtype": "float32"}}, "bias_initializer": {"class_name": "Zeros", "config": {"dtype": "float32"}}, "kernel_regularizer": null, "bias_regularizer": null, "activity_regularizer": null, "kernel_constraint": null, "bias_constraint": null}, "inbound_nodes": [[["Block35_3_Activation", 0, 0, {}]]]}, {"name": "Block35_4_Branch_1_Conv2d_0b_3x3", "class_name": "Conv2D", "config": {"name": "Block35_4_Branch_1_Conv2d_0b_3x3", "trainable": true, "dtype": "float32", "filters": 32, "kernel_size": [3, 3], "strides": [1, 1], "padding": "same", "data_format": "channels_last", "dilation_rate": [1, 1], "activation": "linear", "use_bias": false, "kernel_initializer": {"class_name": "GlorotUniform", "config": {"seed": null, "dtype": "float32"}}, "bias_initializer": {"class_name": "Zeros", "config": {"dtype": "float32"}}, "kernel_regularizer": null, "bias_regularizer": null, "activity_regularizer": null, "kernel_constraint": null, "bias_constraint": null}, "inbound_nodes": [[["Block35_4_Branch_1_Conv2d_0a_1x1_Activation", 0, 0, {}]]]}, {"name": "Block35_4_Branch_2_Conv2d_0c_3x3", "class_name": "Conv2D", "config": {"name": "Block35_4_Branch_2_Conv2d_0c_3x3", "trainable": true, "dtype": "float32", "filters": 32, "kernel_size": [3, 3], "strides": [1, 1], "padding": "same", "data_format": "channels_last", "dilation_rate": [1, 1], "activation": "linear", "use_bias": false, "kernel_initializer": {"class_name": "GlorotUniform", "config": {"seed": null, "dtype": "float32"}}, "bias_initializer": {"class_name": "Zeros", "config": {"dtype": "float32"}}, "kernel_regularizer": null, "bias_regularizer": null, "activity_regularizer": null, "kernel_constraint": null, "bias_constraint": null}, "inbound_nodes": [[["Block35_4_Branch_2_Conv2d_0b_3x3_Activation", 0, 0, {}]]]}, {"name": "Block35_4_Branch_0_Conv2d_1x1_BatchNorm", "class_name": "BatchNormalization", "config": {"name": "Block35_4_Branch_0_Conv2d_1x1_BatchNorm", "trainable": true, "dtype": "float32", "axis": [3], "momentum": 0.995, "epsilon": 0.001, "center": true, "scale": false, "beta_initializer": {"class_name": "Zeros", "config": {"dtype": "float32"}}, "gamma_initializer": {"class_name": "Ones", "config": {"dtype": "float32"}}, "moving_mean_initializer": {"class_name": "Zeros", "config": {"dtype": "float32"}}, "moving_variance_initializer": {"class_name": "Ones", "config": {"dtype": "float32"}}, "beta_regularizer": null, "gamma_regularizer": null, "beta_constraint": null, "gamma_constraint": null}, "inbound_nodes": [[["Block35_4_Branch_0_Conv2d_1x1", 0, 0, {}]]]}, {"name": "Block35_4_Branch_1_Conv2d_0b_3x3_BatchNorm", "class_name": "BatchNormalization", "config": {"name": "Block35_4_Branch_1_Conv2d_0b_3x3_BatchNorm", "trainable": true, "dtype": "float32", "axis": [3], "momentum": 0.995, "epsilon": 0.001, "center": true, "scale": false, "beta_initializer": {"class_name": "Zeros", "config": {"dtype": "float32"}}, "gamma_initializer": {"class_name": "Ones", "config": {"dtype": "float32"}}, "moving_mean_initializer": {"class_name": "Zeros", "config": {"dtype": "float32"}}, "moving_variance_initializer": {"class_name": "Ones", "config": {"dtype": "float32"}}, "beta_regularizer": null, "gamma_regularizer": null, "beta_constraint": null, "gamma_constraint": null}, "inbound_nodes": [[["Block35_4_Branch_1_Conv2d_0b_3x3", 0, 0, {}]]]}, {"name": "Block35_4_Branch_2_Conv2d_0c_3x3_BatchNorm", "class_name": "BatchNormalization", "config": {"name": "Block35_4_Branch_2_Conv2d_0c_3x3_BatchNorm", "trainable": true, "dtype": "float32", "axis": [3], "momentum": 0.995, "epsilon": 0.001, "center": true, "scale": false, "beta_initializer": {"class_name": "Zeros", "config": {"dtype": "float32"}}, "gamma_initializer": {"class_name": "Ones", "config": {"dtype": "float32"}}, "moving_mean_initializer": {"class_name": "Zeros", "config": {"dtype": "float32"}}, "moving_variance_initializer": {"class_name": "Ones", "config": {"dtype": "float32"}}, "beta_regularizer": null, "gamma_regularizer": null, "beta_constraint": null, "gamma_constraint": null}, "inbound_nodes": [[["Block35_4_Branch_2_Conv2d_0c_3x3", 0, 0, {}]]]}, {"name": "Block35_4_Branch_0_Conv2d_1x1_Activation", "class_name": "Activation", "config": {"name": "Block35_4_Branch_0_Conv2d_1x1_Activation", "trainable": true, "dtype": "float32", "activation": "relu"}, "inbound_nodes": [[["Block35_4_Branch_0_Conv2d_1x1_BatchNorm", 0, 0, {}]]]}, {"name": "Block35_4_Branch_1_Conv2d_0b_3x3_Activation", "class_name": "Activation", "config": {"name": "Block35_4_Branch_1_Conv2d_0b_3x3_Activation", "trainable": true, "dtype": "float32", "activation": "relu"}, "inbound_nodes": [[["Block35_4_Branch_1_Conv2d_0b_3x3_BatchNorm", 0, 0, {}]]]}, {"name": "Block35_4_Branch_2_Conv2d_0c_3x3_Activation", "class_name": "Activation", "config": {"name": "Block35_4_Branch_2_Conv2d_0c_3x3_Activation", "trainable": true, "dtype": "float32", "activation": "relu"}, "inbound_nodes": [[["Block35_4_Branch_2_Conv2d_0c_3x3_BatchNorm", 0, 0, {}]]]}, {"name": "Block35_4_Concatenate", "class_name": "Concatenate", "config": {"name": "Block35_4_Concatenate", "trainable": true, "dtype": "float32", "axis": 3}, "inbound_nodes": [[["Block35_4_Branch_0_Conv2d_1x1_Activation", 0, 0, {}], ["Block35_4_Branch_1_Conv2d_0b_3x3_Activation", 0, 0, {}], ["Block35_4_Branch_2_Conv2d_0c_3x3_Activation", 0, 0, {}]]]}, {"name": "Block35_4_Conv2d_1x1", "class_name": "Conv2D", "config": {"name": "Block35_4_Conv2d_1x1", "trainable": true, "dtype": "float32", "filters": 256, "kernel_size": [1, 1], "strides": [1, 1], "padding": "same", "data_format": "channels_last", "dilation_rate": [1, 1], "activation": "linear", "use_bias": true, "kernel_initializer": {"class_name": "GlorotUniform", "config": {"seed": null, "dtype": "float32"}}, "bias_initializer": {"class_name": "Zeros", "config": {"dtype": "float32"}}, "kernel_regularizer": null, "bias_regularizer": null, "activity_regularizer": null, "kernel_constraint": null, "bias_constraint": null}, "inbound_nodes": [[["Block35_4_Concatenate", 0, 0, {}]]]}, {"name": "hyper_scale_3", "class_name": "HyperScale", "config": {"name": "hyper_scale_3", "trainable": true, "dtype": "float32", "value": 0.17}, "inbound_nodes": [[["Block35_4_Conv2d_1x1", 0, 0, {}]]]}, {"name": "add_3", "class_name": "Add", "config": {"name": "add_3", "trainable": true, "dtype": "float32"}, "inbound_nodes": [[["Block35_3_Activation", 0, 0, {}], ["hyper_scale_3", 0, 0, {}]]]}, {"name": "Block35_4_Activation", "class_name": "Activation", "config": {"name": "Block35_4_Activation", "trainable": true, "dtype": "float32", "activation": "relu"}, "inbound_nodes": [[["add_3", 0, 0, {}]]]}, {"name": "Block35_5_Branch_2_Conv2d_0a_1x1", "class_name": "Conv2D", "config": {"name": "Block35_5_Branch_2_Conv2d_0a_1x1", "trainable": true, "dtype": "float32", "filters": 32, "kernel_size": [1, 1], "strides": [1, 1], "padding": "same", "data_format": "channels_last", "dilation_rate": [1, 1], "activation": "linear", "use_bias": false, "kernel_initializer": {"class_name": "GlorotUniform", "config": {"seed": null, "dtype": "float32"}}, "bias_initializer": {"class_name": "Zeros", "config": {"dtype": "float32"}}, "kernel_regularizer": null, "bias_regularizer": null, "activity_regularizer": null, "kernel_constraint": null, "bias_constraint": null}, "inbound_nodes": [[["Block35_4_Activation", 0, 0, {}]]]}, {"name": "Block35_5_Branch_2_Conv2d_0a_1x1_BatchNorm", "class_name": "BatchNormalization", "config": {"name": "Block35_5_Branch_2_Conv2d_0a_1x1_BatchNorm", "trainable": true, "dtype": "float32", "axis": [3], "momentum": 0.995, "epsilon": 0.001, "center": true, "scale": false, "beta_initializer": {"class_name": "Zeros", "config": {"dtype": "float32"}}, "gamma_initializer": {"class_name": "Ones", "config": {"dtype": "float32"}}, "moving_mean_initializer": {"class_name": "Zeros", "config": {"dtype": "float32"}}, "moving_variance_initializer": {"class_name": "Ones", "config": {"dtype": "float32"}}, "beta_regularizer": null, "gamma_regularizer": null, "beta_constraint": null, "gamma_constraint": null}, "inbound_nodes": [[["Block35_5_Branch_2_Conv2d_0a_1x1", 0, 0, {}]]]}, {"name": "Block35_5_Branch_2_Conv2d_0a_1x1_Activation", "class_name": "Activation", "config": {"name": "Block35_5_Branch_2_Conv2d_0a_1x1_Activation", "trainable": true, "dtype": "float32", "activation": "relu"}, "inbound_nodes": [[["Block35_5_Branch_2_Conv2d_0a_1x1_BatchNorm", 0, 0, {}]]]}, {"name": "Block35_5_Branch_1_Conv2d_0a_1x1", "class_name": "Conv2D", "config": {"name": "Block35_5_Branch_1_Conv2d_0a_1x1", "trainable": true, "dtype": "float32", "filters": 32, "kernel_size": [1, 1], "strides": [1, 1], "padding": "same", "data_format": "channels_last", "dilation_rate": [1, 1], "activation": "linear", "use_bias": false, "kernel_initializer": {"class_name": "GlorotUniform", "config": {"seed": null, "dtype": "float32"}}, "bias_initializer": {"class_name": "Zeros", "config": {"dtype": "float32"}}, "kernel_regularizer": null, "bias_regularizer": null, "activity_regularizer": null, "kernel_constraint": null, "bias_constraint": null}, "inbound_nodes": [[["Block35_4_Activation", 0, 0, {}]]]}, {"name": "Block35_5_Branch_2_Conv2d_0b_3x3", "class_name": "Conv2D", "config": {"name": "Block35_5_Branch_2_Conv2d_0b_3x3", "trainable": true, "dtype": "float32", "filters": 32, "kernel_size": [3, 3], "strides": [1, 1], "padding": "same", "data_format": "channels_last", "dilation_rate": [1, 1], "activation": "linear", "use_bias": false, "kernel_initializer": {"class_name": "GlorotUniform", "config": {"seed": null, "dtype": "float32"}}, "bias_initializer": {"class_name": "Zeros", "config": {"dtype": "float32"}}, "kernel_regularizer": null, "bias_regularizer": null, "activity_regularizer": null, "kernel_constraint": null, "bias_constraint": null}, "inbound_nodes": [[["Block35_5_Branch_2_Conv2d_0a_1x1_Activation", 0, 0, {}]]]}, {"name": "Block35_5_Branch_1_Conv2d_0a_1x1_BatchNorm", "class_name": "BatchNormalization", "config": {"name": "Block35_5_Branch_1_Conv2d_0a_1x1_BatchNorm", "trainable": true, "dtype": "float32", "axis": [3], "momentum": 0.995, "epsilon": 0.001, "center": true, "scale": false, "beta_initializer": {"class_name": "Zeros", "config": {"dtype": "float32"}}, "gamma_initializer": {"class_name": "Ones", "config": {"dtype": "float32"}}, "moving_mean_initializer": {"class_name": "Zeros", "config": {"dtype": "float32"}}, "moving_variance_initializer": {"class_name": "Ones", "config": {"dtype": "float32"}}, "beta_regularizer": null, "gamma_regularizer": null, "beta_constraint": null, "gamma_constraint": null}, "inbound_nodes": [[["Block35_5_Branch_1_Conv2d_0a_1x1", 0, 0, {}]]]}, {"name": "Block35_5_Branch_2_Conv2d_0b_3x3_BatchNorm", "class_name": "BatchNormalization", "config": {"name": "Block35_5_Branch_2_Conv2d_0b_3x3_BatchNorm", "trainable": true, "dtype": "float32", "axis": [3], "momentum": 0.995, "epsilon": 0.001, "center": true, "scale": false, "beta_initializer": {"class_name": "Zeros", "config": {"dtype": "float32"}}, "gamma_initializer": {"class_name": "Ones", "config": {"dtype": "float32"}}, "moving_mean_initializer": {"class_name": "Zeros", "config": {"dtype": "float32"}}, "moving_variance_initializer": {"class_name": "Ones", "config": {"dtype": "float32"}}, "beta_regularizer": null, "gamma_regularizer": null, "beta_constraint": null, "gamma_constraint": null}, "inbound_nodes": [[["Block35_5_Branch_2_Conv2d_0b_3x3", 0, 0, {}]]]}, {"name": "Block35_5_Branch_1_Conv2d_0a_1x1_Activation", "class_name": "Activation", "config": {"name": "Block35_5_Branch_1_Conv2d_0a_1x1_Activation", "trainable": true, "dtype": "float32", "activation": "relu"}, "inbound_nodes": [[["Block35_5_Branch_1_Conv2d_0a_1x1_BatchNorm", 0, 0, {}]]]}, {"name": "Block35_5_Branch_2_Conv2d_0b_3x3_Activation", "class_name": "Activation", "config": {"name": "Block35_5_Branch_2_Conv2d_0b_3x3_Activation", "trainable": true, "dtype": "float32", "activation": "relu"}, "inbound_nodes": [[["Block35_5_Branch_2_Conv2d_0b_3x3_BatchNorm", 0, 0, {}]]]}, {"name": "Block35_5_Branch_0_Conv2d_1x1", "class_name": "Conv2D", "config": {"name": "Block35_5_Branch_0_Conv2d_1x1", "trainable": true, "dtype": "float32", "filters": 32, "kernel_size": [1, 1], "strides": [1, 1], "padding": "same", "data_format": "channels_last", "dilation_rate": [1, 1], "activation": "linear", "use_bias": false, "kernel_initializer": {"class_name": "GlorotUniform", "config": {"seed": null, "dtype": "float32"}}, "bias_initializer": {"class_name": "Zeros", "config": {"dtype": "float32"}}, "kernel_regularizer": null, "bias_regularizer": null, "activity_regularizer": null, "kernel_constraint": null, "bias_constraint": null}, "inbound_nodes": [[["Block35_4_Activation", 0, 0, {}]]]}, {"name": "Block35_5_Branch_1_Conv2d_0b_3x3", "class_name": "Conv2D", "config": {"name": "Block35_5_Branch_1_Conv2d_0b_3x3", "trainable": true, "dtype": "float32", "filters": 32, "kernel_size": [3, 3], "strides": [1, 1], "padding": "same", "data_format": "channels_last", "dilation_rate": [1, 1], "activation": "linear", "use_bias": false, "kernel_initializer": {"class_name": "GlorotUniform", "config": {"seed": null, "dtype": "float32"}}, "bias_initializer": {"class_name": "Zeros", "config": {"dtype": "float32"}}, "kernel_regularizer": null, "bias_regularizer": null, "activity_regularizer": null, "kernel_constraint": null, "bias_constraint": null}, "inbound_nodes": [[["Block35_5_Branch_1_Conv2d_0a_1x1_Activation", 0, 0, {}]]]}, {"name": "Block35_5_Branch_2_Conv2d_0c_3x3", "class_name": "Conv2D", "config": {"name": "Block35_5_Branch_2_Conv2d_0c_3x3", "trainable": true, "dtype": "float32", "filters": 32, "kernel_size": [3, 3], "strides": [1, 1], "padding": "same", "data_format": "channels_last", "dilation_rate": [1, 1], "activation": "linear", "use_bias": false, "kernel_initializer": {"class_name": "GlorotUniform", "config": {"seed": null, "dtype": "float32"}}, "bias_initializer": {"class_name": "Zeros", "config": {"dtype": "float32"}}, "kernel_regularizer": null, "bias_regularizer": null, "activity_regularizer": null, "kernel_constraint": null, "bias_constraint": null}, "inbound_nodes": [[["Block35_5_Branch_2_Conv2d_0b_3x3_Activation", 0, 0, {}]]]}, {"name": "Block35_5_Branch_0_Conv2d_1x1_BatchNorm", "class_name": "BatchNormalization", "config": {"name": "Block35_5_Branch_0_Conv2d_1x1_BatchNorm", "trainable": true, "dtype": "float32", "axis": [3], "momentum": 0.995, "epsilon": 0.001, "center": true, "scale": false, "beta_initializer": {"class_name": "Zeros", "config": {"dtype": "float32"}}, "gamma_initializer": {"class_name": "Ones", "config": {"dtype": "float32"}}, "moving_mean_initializer": {"class_name": "Zeros", "config": {"dtype": "float32"}}, "moving_variance_initializer": {"class_name": "Ones", "config": {"dtype": "float32"}}, "beta_regularizer": null, "gamma_regularizer": null, "beta_constraint": null, "gamma_constraint": null}, "inbound_nodes": [[["Block35_5_Branch_0_Conv2d_1x1", 0, 0, {}]]]}, {"name": "Block35_5_Branch_1_Conv2d_0b_3x3_BatchNorm", "class_name": "BatchNormalization", "config": {"name": "Block35_5_Branch_1_Conv2d_0b_3x3_BatchNorm", "trainable": true, "dtype": "float32", "axis": [3], "momentum": 0.995, "epsilon": 0.001, "center": true, "scale": false, "beta_initializer": {"class_name": "Zeros", "config": {"dtype": "float32"}}, "gamma_initializer": {"class_name": "Ones", "config": {"dtype": "float32"}}, "moving_mean_initializer": {"class_name": "Zeros", "config": {"dtype": "float32"}}, "moving_variance_initializer": {"class_name": "Ones", "config": {"dtype": "float32"}}, "beta_regularizer": null, "gamma_regularizer": null, "beta_constraint": null, "gamma_constraint": null}, "inbound_nodes": [[["Block35_5_Branch_1_Conv2d_0b_3x3", 0, 0, {}]]]}, {"name": "Block35_5_Branch_2_Conv2d_0c_3x3_BatchNorm", "class_name": "BatchNormalization", "config": {"name": "Block35_5_Branch_2_Conv2d_0c_3x3_BatchNorm", "trainable": true, "dtype": "float32", "axis": [3], "momentum": 0.995, "epsilon": 0.001, "center": true, "scale": false, "beta_initializer": {"class_name": "Zeros", "config": {"dtype": "float32"}}, "gamma_initializer": {"class_name": "Ones", "config": {"dtype": "float32"}}, "moving_mean_initializer": {"class_name": "Zeros", "config": {"dtype": "float32"}}, "moving_variance_initializer": {"class_name": "Ones", "config": {"dtype": "float32"}}, "beta_regularizer": null, "gamma_regularizer": null, "beta_constraint": null, "gamma_constraint": null}, "inbound_nodes": [[["Block35_5_Branch_2_Conv2d_0c_3x3", 0, 0, {}]]]}, {"name": "Block35_5_Branch_0_Conv2d_1x1_Activation", "class_name": "Activation", "config": {"name": "Block35_5_Branch_0_Conv2d_1x1_Activation", "trainable": true, "dtype": "float32", "activation": "relu"}, "inbound_nodes": [[["Block35_5_Branch_0_Conv2d_1x1_BatchNorm", 0, 0, {}]]]}, {"name": "Block35_5_Branch_1_Conv2d_0b_3x3_Activation", "class_name": "Activation", "config": {"name": "Block35_5_Branch_1_Conv2d_0b_3x3_Activation", "trainable": true, "dtype": "float32", "activation": "relu"}, "inbound_nodes": [[["Block35_5_Branch_1_Conv2d_0b_3x3_BatchNorm", 0, 0, {}]]]}, {"name": "Block35_5_Branch_2_Conv2d_0c_3x3_Activation", "class_name": "Activation", "config": {"name": "Block35_5_Branch_2_Conv2d_0c_3x3_Activation", "trainable": true, "dtype": "float32", "activation": "relu"}, "inbound_nodes": [[["Block35_5_Branch_2_Conv2d_0c_3x3_BatchNorm", 0, 0, {}]]]}, {"name": "Block35_5_Concatenate", "class_name": "Concatenate", "config": {"name": "Block35_5_Concatenate", "trainable": true, "dtype": "float32", "axis": 3}, "inbound_nodes": [[["Block35_5_Branch_0_Conv2d_1x1_Activation", 0, 0, {}], ["Block35_5_Branch_1_Conv2d_0b_3x3_Activation", 0, 0, {}], ["Block35_5_Branch_2_Conv2d_0c_3x3_Activation", 0, 0, {}]]]}, {"name": "Block35_5_Conv2d_1x1", "class_name": "Conv2D", "config": {"name": "Block35_5_Conv2d_1x1", "trainable": true, "dtype": "float32", "filters": 256, "kernel_size": [1, 1], "strides": [1, 1], "padding": "same", "data_format": "channels_last", "dilation_rate": [1, 1], "activation": "linear", "use_bias": true, "kernel_initializer": {"class_name": "GlorotUniform", "config": {"seed": null, "dtype": "float32"}}, "bias_initializer": {"class_name": "Zeros", "config": {"dtype": "float32"}}, "kernel_regularizer": null, "bias_regularizer": null, "activity_regularizer": null, "kernel_constraint": null, "bias_constraint": null}, "inbound_nodes": [[["Block35_5_Concatenate", 0, 0, {}]]]}, {"name": "hyper_scale_4", "class_name": "HyperScale", "config": {"name": "hyper_scale_4", "trainable": true, "dtype": "float32", "value": 0.17}, "inbound_nodes": [[["Block35_5_Conv2d_1x1", 0, 0, {}]]]}, {"name": "add_4", "class_name": "Add", "config": {"name": "add_4", "trainable": true, "dtype": "float32"}, "inbound_nodes": [[["Block35_4_Activation", 0, 0, {}], ["hyper_scale_4", 0, 0, {}]]]}, {"name": "Block35_5_Activation", "class_name": "Activation", "config": {"name": "Block35_5_Activation", "trainable": true, "dtype": "float32", "activation": "relu"}, "inbound_nodes": [[["add_4", 0, 0, {}]]]}, {"name": "Mixed_6a_Branch_1_Conv2d_0a_1x1", "class_name": "Conv2D", "config": {"name": "Mixed_6a_Branch_1_Conv2d_0a_1x1", "trainable": true, "dtype": "float32", "filters": 192, "kernel_size": [1, 1], "strides": [1, 1], "padding": "same", "data_format": "channels_last", "dilation_rate": [1, 1], "activation": "linear", "use_bias": false, "kernel_initializer": {"class_name": "GlorotUniform", "config": {"seed": null, "dtype": "float32"}}, "bias_initializer": {"class_name": "Zeros", "config": {"dtype": "float32"}}, "kernel_regularizer": null, "bias_regularizer": null, "activity_regularizer": null, "kernel_constraint": null, "bias_constraint": null}, "inbound_nodes": [[["Block35_5_Activation", 0, 0, {}]]]}, {"name": "Mixed_6a_Branch_1_Conv2d_0a_1x1_BatchNorm", "class_name": "BatchNormalization", "config": {"name": "Mixed_6a_Branch_1_Conv2d_0a_1x1_BatchNorm", "trainable": true, "dtype": "float32", "axis": [3], "momentum": 0.995, "epsilon": 0.001, "center": true, "scale": false, "beta_initializer": {"class_name": "Zeros", "config": {"dtype": "float32"}}, "gamma_initializer": {"class_name": "Ones", "config": {"dtype": "float32"}}, "moving_mean_initializer": {"class_name": "Zeros", "config": {"dtype": "float32"}}, "moving_variance_initializer": {"class_name": "Ones", "config": {"dtype": "float32"}}, "beta_regularizer": null, "gamma_regularizer": null, "beta_constraint": null, "gamma_constraint": null}, "inbound_nodes": [[["Mixed_6a_Branch_1_Conv2d_0a_1x1", 0, 0, {}]]]}, {"name": "Mixed_6a_Branch_1_Conv2d_0a_1x1_Activation", "class_name": "Activation", "config": {"name": "Mixed_6a_Branch_1_Conv2d_0a_1x1_Activation", "trainable": true, "dtype": "float32", "activation": "relu"}, "inbound_nodes": [[["Mixed_6a_Branch_1_Conv2d_0a_1x1_BatchNorm", 0, 0, {}]]]}, {"name": "Mixed_6a_Branch_1_Conv2d_0b_3x3", "class_name": "Conv2D", "config": {"name": "Mixed_6a_Branch_1_Conv2d_0b_3x3", "trainable": true, "dtype": "float32", "filters": 192, "kernel_size": [3, 3], "strides": [1, 1], "padding": "same", "data_format": "channels_last", "dilation_rate": [1, 1], "activation": "linear", "use_bias": false, "kernel_initializer": {"class_name": "GlorotUniform", "config": {"seed": null, "dtype": "float32"}}, "bias_initializer": {"class_name": "Zeros", "config": {"dtype": "float32"}}, "kernel_regularizer": null, "bias_regularizer": null, "activity_regularizer": null, "kernel_constraint": null, "bias_constraint": null}, "inbound_nodes": [[["Mixed_6a_Branch_1_Conv2d_0a_1x1_Activation", 0, 0, {}]]]}, {"name": "Mixed_6a_Branch_1_Conv2d_0b_3x3_BatchNorm", "class_name": "BatchNormalization", "config": {"name": "Mixed_6a_Branch_1_Conv2d_0b_3x3_BatchNorm", "trainable": true, "dtype": "float32", "axis": [3], "momentum": 0.995, "epsilon": 0.001, "center": true, "scale": false, "beta_initializer": {"class_name": "Zeros", "config": {"dtype": "float32"}}, "gamma_initializer": {"class_name": "Ones", "config": {"dtype": "float32"}}, "moving_mean_initializer": {"class_name": "Zeros", "config": {"dtype": "float32"}}, "moving_variance_initializer": {"class_name": "Ones", "config": {"dtype": "float32"}}, "beta_regularizer": null, "gamma_regularizer": null, "beta_constraint": null, "gamma_constraint": null}, "inbound_nodes": [[["Mixed_6a_Branch_1_Conv2d_0b_3x3", 0, 0, {}]]]}, {"name": "Mixed_6a_Branch_1_Conv2d_0b_3x3_Activation", "class_name": "Activation", "config": {"name": "Mixed_6a_Branch_1_Conv2d_0b_3x3_Activation", "trainable": true, "dtype": "float32", "activation": "relu"}, "inbound_nodes": [[["Mixed_6a_Branch_1_Conv2d_0b_3x3_BatchNorm", 0, 0, {}]]]}, {"name": "Mixed_6a_Branch_0_Conv2d_1a_3x3", "class_name": "Conv2D", "config": {"name": "Mixed_6a_Branch_0_Conv2d_1a_3x3", "trainable": true, "dtype": "float32", "filters": 384, "kernel_size": [3, 3], "strides": [2, 2], "padding": "valid", "data_format": "channels_last", "dilation_rate": [1, 1], "activation": "linear", "use_bias": false, "kernel_initializer": {"class_name": "GlorotUniform", "config": {"seed": null, "dtype": "float32"}}, "bias_initializer": {"class_name": "Zeros", "config": {"dtype": "float32"}}, "kernel_regularizer": null, "bias_regularizer": null, "activity_regularizer": null, "kernel_constraint": null, "bias_constraint": null}, "inbound_nodes": [[["Block35_5_Activation", 0, 0, {}]]]}, {"name": "Mixed_6a_Branch_1_Conv2d_1a_3x3", "class_name": "Conv2D", "config": {"name": "Mixed_6a_Branch_1_Conv2d_1a_3x3", "trainable": true, "dtype": "float32", "filters": 256, "kernel_size": [3, 3], "strides": [2, 2], "padding": "valid", "data_format": "channels_last", "dilation_rate": [1, 1], "activation": "linear", "use_bias": false, "kernel_initializer": {"class_name": "GlorotUniform", "config": {"seed": null, "dtype": "float32"}}, "bias_initializer": {"class_name": "Zeros", "config": {"dtype": "float32"}}, "kernel_regularizer": null, "bias_regularizer": null, "activity_regularizer": null, "kernel_constraint": null, "bias_constraint": null}, "inbound_nodes": [[["Mixed_6a_Branch_1_Conv2d_0b_3x3_Activation", 0, 0, {}]]]}, {"name": "Mixed_6a_Branch_0_Conv2d_1a_3x3_BatchNorm", "class_name": "BatchNormalization", "config": {"name": "Mixed_6a_Branch_0_Conv2d_1a_3x3_BatchNorm", "trainable": true, "dtype": "float32", "axis": [3], "momentum": 0.995, "epsilon": 0.001, "center": true, "scale": false, "beta_initializer": {"class_name": "Zeros", "config": {"dtype": "float32"}}, "gamma_initializer": {"class_name": "Ones", "config": {"dtype": "float32"}}, "moving_mean_initializer": {"class_name": "Zeros", "config": {"dtype": "float32"}}, "moving_variance_initializer": {"class_name": "Ones", "config": {"dtype": "float32"}}, "beta_regularizer": null, "gamma_regularizer": null, "beta_constraint": null, "gamma_constraint": null}, "inbound_nodes": [[["Mixed_6a_Branch_0_Conv2d_1a_3x3", 0, 0, {}]]]}, {"name": "Mixed_6a_Branch_1_Conv2d_1a_3x3_BatchNorm", "class_name": "BatchNormalization", "config": {"name": "Mixed_6a_Branch_1_Conv2d_1a_3x3_BatchNorm", "trainable": true, "dtype": "float32", "axis": [3], "momentum": 0.995, "epsilon": 0.001, "center": true, "scale": false, "beta_initializer": {"class_name": "Zeros", "config": {"dtype": "float32"}}, "gamma_initializer": {"class_name": "Ones", "config": {"dtype": "float32"}}, "moving_mean_initializer": {"class_name": "Zeros", "config": {"dtype": "float32"}}, "moving_variance_initializer": {"class_name": "Ones", "config": {"dtype": "float32"}}, "beta_regularizer": null, "gamma_regularizer": null, "beta_constraint": null, "gamma_constraint": null}, "inbound_nodes": [[["Mixed_6a_Branch_1_Conv2d_1a_3x3", 0, 0, {}]]]}, {"name": "Mixed_6a_Branch_0_Conv2d_1a_3x3_Activation", "class_name": "Activation", "config": {"name": "Mixed_6a_Branch_0_Conv2d_1a_3x3_Activation", "trainable": true, "dtype": "float32", "activation": "relu"}, "inbound_nodes": [[["Mixed_6a_Branch_0_Conv2d_1a_3x3_BatchNorm", 0, 0, {}]]]}, {"name": "Mixed_6a_Branch_1_Conv2d_1a_3x3_Activation", "class_name": "Activation", "config": {"name": "Mixed_6a_Branch_1_Conv2d_1a_3x3_Activation", "trainable": true, "dtype": "float32", "activation": "relu"}, "inbound_nodes": [[["Mixed_6a_Branch_1_Conv2d_1a_3x3_BatchNorm", 0, 0, {}]]]}, {"name": "Mixed_6a_Branch_2_MaxPool_1a_3x3", "class_name": "MaxPooling2D", "config": {"name": "Mixed_6a_Branch_2_MaxPool_1a_3x3", "trainable": true, "dtype": "float32", "pool_size": [3, 3], "padding": "valid", "strides": [2, 2], "data_format": "channels_last"}, "inbound_nodes": [[["Block35_5_Activation", 0, 0, {}]]]}, {"name": "Mixed_6a", "class_name": "Concatenate", "config": {"name": "Mixed_6a", "trainable": true, "dtype": "float32", "axis": 3}, "inbound_nodes": [[["Mixed_6a_Branch_0_Conv2d_1a_3x3_Activation", 0, 0, {}], ["Mixed_6a_Branch_1_Conv2d_1a_3x3_Activation", 0, 0, {}], ["Mixed_6a_Branch_2_MaxPool_1a_3x3", 0, 0, {}]]]}, {"name": "Block17_1_Branch_1_Conv2d_0a_1x1", "class_name": "Conv2D", "config": {"name": "Block17_1_Branch_1_Conv2d_0a_1x1", "trainable": true, "dtype": "float32", "filters": 128, "kernel_size": [1, 1], "strides": [1, 1], "padding": "same", "data_format": "channels_last", "dilation_rate": [1, 1], "activation": "linear", "use_bias": false, "kernel_initializer": {"class_name": "GlorotUniform", "config": {"seed": null, "dtype": "float32"}}, "bias_initializer": {"class_name": "Zeros", "config": {"dtype": "float32"}}, "kernel_regularizer": null, "bias_regularizer": null, "activity_regularizer": null, "kernel_constraint": null, "bias_constraint": null}, "inbound_nodes": [[["Mixed_6a", 0, 0, {}]]]}, {"name": "Block17_1_Branch_1_Conv2d_0a_1x1_BatchNorm", "class_name": "BatchNormalization", "config": {"name": "Block17_1_Branch_1_Conv2d_0a_1x1_BatchNorm", "trainable": true, "dtype": "float32", "axis": [3], "momentum": 0.995, "epsilon": 0.001, "center": true, "scale": false, "beta_initializer": {"class_name": "Zeros", "config": {"dtype": "float32"}}, "gamma_initializer": {"class_name": "Ones", "config": {"dtype": "float32"}}, "moving_mean_initializer": {"class_name": "Zeros", "config": {"dtype": "float32"}}, "moving_variance_initializer": {"class_name": "Ones", "config": {"dtype": "float32"}}, "beta_regularizer": null, "gamma_regularizer": null, "beta_constraint": null, "gamma_constraint": null}, "inbound_nodes": [[["Block17_1_Branch_1_Conv2d_0a_1x1", 0, 0, {}]]]}, {"name": "Block17_1_Branch_1_Conv2d_0a_1x1_Activation", "class_name": "Activation", "config": {"name": "Block17_1_Branch_1_Conv2d_0a_1x1_Activation", "trainable": true, "dtype": "float32", "activation": "relu"}, "inbound_nodes": [[["Block17_1_Branch_1_Conv2d_0a_1x1_BatchNorm", 0, 0, {}]]]}, {"name": "Block17_1_Branch_1_Conv2d_0b_1x7", "class_name": "Conv2D", "config": {"name": "Block17_1_Branch_1_Conv2d_0b_1x7", "trainable": true, "dtype": "float32", "filters": 128, "kernel_size": [1, 7], "strides": [1, 1], "padding": "same", "data_format": "channels_last", "dilation_rate": [1, 1], "activation": "linear", "use_bias": false, "kernel_initializer": {"class_name": "GlorotUniform", "config": {"seed": null, "dtype": "float32"}}, "bias_initializer": {"class_name": "Zeros", "config": {"dtype": "float32"}}, "kernel_regularizer": null, "bias_regularizer": null, "activity_regularizer": null, "kernel_constraint": null, "bias_constraint": null}, "inbound_nodes": [[["Block17_1_Branch_1_Conv2d_0a_1x1_Activation", 0, 0, {}]]]}, {"name": "Block17_1_Branch_1_Conv2d_0b_1x7_BatchNorm", "class_name": "BatchNormalization", "config": {"name": "Block17_1_Branch_1_Conv2d_0b_1x7_BatchNorm", "trainable": true, "dtype": "float32", "axis": [3], "momentum": 0.995, "epsilon": 0.001, "center": true, "scale": false, "beta_initializer": {"class_name": "Zeros", "config": {"dtype": "float32"}}, "gamma_initializer": {"class_name": "Ones", "config": {"dtype": "float32"}}, "moving_mean_initializer": {"class_name": "Zeros", "config": {"dtype": "float32"}}, "moving_variance_initializer": {"class_name": "Ones", "config": {"dtype": "float32"}}, "beta_regularizer": null, "gamma_regularizer": null, "beta_constraint": null, "gamma_constraint": null}, "inbound_nodes": [[["Block17_1_Branch_1_Conv2d_0b_1x7", 0, 0, {}]]]}, {"name": "Block17_1_Branch_1_Conv2d_0b_1x7_Activation", "class_name": "Activation", "config": {"name": "Block17_1_Branch_1_Conv2d_0b_1x7_Activation", "trainable": true, "dtype": "float32", "activation": "relu"}, "inbound_nodes": [[["Block17_1_Branch_1_Conv2d_0b_1x7_BatchNorm", 0, 0, {}]]]}, {"name": "Block17_1_Branch_0_Conv2d_1x1", "class_name": "Conv2D", "config": {"name": "Block17_1_Branch_0_Conv2d_1x1", "trainable": true, "dtype": "float32", "filters": 128, "kernel_size": [1, 1], "strides": [1, 1], "padding": "same", "data_format": "channels_last", "dilation_rate": [1, 1], "activation": "linear", "use_bias": false, "kernel_initializer": {"class_name": "GlorotUniform", "config": {"seed": null, "dtype": "float32"}}, "bias_initializer": {"class_name": "Zeros", "config": {"dtype": "float32"}}, "kernel_regularizer": null, "bias_regularizer": null, "activity_regularizer": null, "kernel_constraint": null, "bias_constraint": null}, "inbound_nodes": [[["Mixed_6a", 0, 0, {}]]]}, {"name": "Block17_1_Branch_1_Conv2d_0c_7x1", "class_name": "Conv2D", "config": {"name": "Block17_1_Branch_1_Conv2d_0c_7x1", "trainable": true, "dtype": "float32", "filters": 128, "kernel_size": [7, 1], "strides": [1, 1], "padding": "same", "data_format": "channels_last", "dilation_rate": [1, 1], "activation": "linear", "use_bias": false, "kernel_initializer": {"class_name": "GlorotUniform", "config": {"seed": null, "dtype": "float32"}}, "bias_initializer": {"class_name": "Zeros", "config": {"dtype": "float32"}}, "kernel_regularizer": null, "bias_regularizer": null, "activity_regularizer": null, "kernel_constraint": null, "bias_constraint": null}, "inbound_nodes": [[["Block17_1_Branch_1_Conv2d_0b_1x7_Activation", 0, 0, {}]]]}, {"name": "Block17_1_Branch_0_Conv2d_1x1_BatchNorm", "class_name": "BatchNormalization", "config": {"name": "Block17_1_Branch_0_Conv2d_1x1_BatchNorm", "trainable": true, "dtype": "float32", "axis": [3], "momentum": 0.995, "epsilon": 0.001, "center": true, "scale": false, "beta_initializer": {"class_name": "Zeros", "config": {"dtype": "float32"}}, "gamma_initializer": {"class_name": "Ones", "config": {"dtype": "float32"}}, "moving_mean_initializer": {"class_name": "Zeros", "config": {"dtype": "float32"}}, "moving_variance_initializer": {"class_name": "Ones", "config": {"dtype": "float32"}}, "beta_regularizer": null, "gamma_regularizer": null, "beta_constraint": null, "gamma_constraint": null}, "inbound_nodes": [[["Block17_1_Branch_0_Conv2d_1x1", 0, 0, {}]]]}, {"name": "Block17_1_Branch_1_Conv2d_0c_7x1_BatchNorm", "class_name": "BatchNormalization", "config": {"name": "Block17_1_Branch_1_Conv2d_0c_7x1_BatchNorm", "trainable": true, "dtype": "float32", "axis": [3], "momentum": 0.995, "epsilon": 0.001, "center": true, "scale": false, "beta_initializer": {"class_name": "Zeros", "config": {"dtype": "float32"}}, "gamma_initializer": {"class_name": "Ones", "config": {"dtype": "float32"}}, "moving_mean_initializer": {"class_name": "Zeros", "config": {"dtype": "float32"}}, "moving_variance_initializer": {"class_name": "Ones", "config": {"dtype": "float32"}}, "beta_regularizer": null, "gamma_regularizer": null, "beta_constraint": null, "gamma_constraint": null}, "inbound_nodes": [[["Block17_1_Branch_1_Conv2d_0c_7x1", 0, 0, {}]]]}, {"name": "Block17_1_Branch_0_Conv2d_1x1_Activation", "class_name": "Activation", "config": {"name": "Block17_1_Branch_0_Conv2d_1x1_Activation", "trainable": true, "dtype": "float32", "activation": "relu"}, "inbound_nodes": [[["Block17_1_Branch_0_Conv2d_1x1_BatchNorm", 0, 0, {}]]]}, {"name": "Block17_1_Branch_1_Conv2d_0c_7x1_Activation", "class_name": "Activation", "config": {"name": "Block17_1_Branch_1_Conv2d_0c_7x1_Activation", "trainable": true, "dtype": "float32", "activation": "relu"}, "inbound_nodes": [[["Block17_1_Branch_1_Conv2d_0c_7x1_BatchNorm", 0, 0, {}]]]}, {"name": "Block17_1_Concatenate", "class_name": "Concatenate", "config": {"name": "Block17_1_Concatenate", "trainable": true, "dtype": "float32", "axis": 3}, "inbound_nodes": [[["Block17_1_Branch_0_Conv2d_1x1_Activation", 0, 0, {}], ["Block17_1_Branch_1_Conv2d_0c_7x1_Activation", 0, 0, {}]]]}, {"name": "Block17_1_Conv2d_1x1", "class_name": "Conv2D", "config": {"name": "Block17_1_Conv2d_1x1", "trainable": true, "dtype": "float32", "filters": 896, "kernel_size": [1, 1], "strides": [1, 1], "padding": "same", "data_format": "channels_last", "dilation_rate": [1, 1], "activation": "linear", "use_bias": true, "kernel_initializer": {"class_name": "GlorotUniform", "config": {"seed": null, "dtype": "float32"}}, "bias_initializer": {"class_name": "Zeros", "config": {"dtype": "float32"}}, "kernel_regularizer": null, "bias_regularizer": null, "activity_regularizer": null, "kernel_constraint": null, "bias_constraint": null}, "inbound_nodes": [[["Block17_1_Concatenate", 0, 0, {}]]]}, {"name": "hyper_scale_5", "class_name": "HyperScale", "config": {"name": "hyper_scale_5", "trainable": true, "dtype": "float32", "value": 0.1}, "inbound_nodes": [[["Block17_1_Conv2d_1x1", 0, 0, {}]]]}, {"name": "add_5", "class_name": "Add", "config": {"name": "add_5", "trainable": true, "dtype": "float32"}, "inbound_nodes": [[["Mixed_6a", 0, 0, {}], ["hyper_scale_5", 0, 0, {}]]]}, {"name": "Block17_1_Activation", "class_name": "Activation", "config": {"name": "Block17_1_Activation", "trainable": true, "dtype": "float32", "activation": "relu"}, "inbound_nodes": [[["add_5", 0, 0, {}]]]}, {"name": "Block17_2_Branch_1_Conv2d_0a_1x1", "class_name": "Conv2D", "config": {"name": "Block17_2_Branch_1_Conv2d_0a_1x1", "trainable": true, "dtype": "float32", "filters": 128, "kernel_size": [1, 1], "strides": [1, 1], "padding": "same", "data_format": "channels_last", "dilation_rate": [1, 1], "activation": "linear", "use_bias": false, "kernel_initializer": {"class_name": "GlorotUniform", "config": {"seed": null, "dtype": "float32"}}, "bias_initializer": {"class_name": "Zeros", "config": {"dtype": "float32"}}, "kernel_regularizer": null, "bias_regularizer": null, "activity_regularizer": null, "kernel_constraint": null, "bias_constraint": null}, "inbound_nodes": [[["Block17_1_Activation", 0, 0, {}]]]}, {"name": "Block17_2_Branch_1_Conv2d_0a_1x1_BatchNorm", "class_name": "BatchNormalization", "config": {"name": "Block17_2_Branch_1_Conv2d_0a_1x1_BatchNorm", "trainable": true, "dtype": "float32", "axis": [3], "momentum": 0.995, "epsilon": 0.001, "center": true, "scale": false, "beta_initializer": {"class_name": "Zeros", "config": {"dtype": "float32"}}, "gamma_initializer": {"class_name": "Ones", "config": {"dtype": "float32"}}, "moving_mean_initializer": {"class_name": "Zeros", "config": {"dtype": "float32"}}, "moving_variance_initializer": {"class_name": "Ones", "config": {"dtype": "float32"}}, "beta_regularizer": null, "gamma_regularizer": null, "beta_constraint": null, "gamma_constraint": null}, "inbound_nodes": [[["Block17_2_Branch_1_Conv2d_0a_1x1", 0, 0, {}]]]}, {"name": "Block17_2_Branch_1_Conv2d_0a_1x1_Activation", "class_name": "Activation", "config": {"name": "Block17_2_Branch_1_Conv2d_0a_1x1_Activation", "trainable": true, "dtype": "float32", "activation": "relu"}, "inbound_nodes": [[["Block17_2_Branch_1_Conv2d_0a_1x1_BatchNorm", 0, 0, {}]]]}, {"name": "Block17_2_Branch_1_Conv2d_0b_1x7", "class_name": "Conv2D", "config": {"name": "Block17_2_Branch_1_Conv2d_0b_1x7", "trainable": true, "dtype": "float32", "filters": 128, "kernel_size": [1, 7], "strides": [1, 1], "padding": "same", "data_format": "channels_last", "dilation_rate": [1, 1], "activation": "linear", "use_bias": false, "kernel_initializer": {"class_name": "GlorotUniform", "config": {"seed": null, "dtype": "float32"}}, "bias_initializer": {"class_name": "Zeros", "config": {"dtype": "float32"}}, "kernel_regularizer": null, "bias_regularizer": null, "activity_regularizer": null, "kernel_constraint": null, "bias_constraint": null}, "inbound_nodes": [[["Block17_2_Branch_1_Conv2d_0a_1x1_Activation", 0, 0, {}]]]}, {"name": "Block17_2_Branch_1_Conv2d_0b_1x7_BatchNorm", "class_name": "BatchNormalization", "config": {"name": "Block17_2_Branch_1_Conv2d_0b_1x7_BatchNorm", "trainable": true, "dtype": "float32", "axis": [3], "momentum": 0.995, "epsilon": 0.001, "center": true, "scale": false, "beta_initializer": {"class_name": "Zeros", "config": {"dtype": "float32"}}, "gamma_initializer": {"class_name": "Ones", "config": {"dtype": "float32"}}, "moving_mean_initializer": {"class_name": "Zeros", "config": {"dtype": "float32"}}, "moving_variance_initializer": {"class_name": "Ones", "config": {"dtype": "float32"}}, "beta_regularizer": null, "gamma_regularizer": null, "beta_constraint": null, "gamma_constraint": null}, "inbound_nodes": [[["Block17_2_Branch_1_Conv2d_0b_1x7", 0, 0, {}]]]}, {"name": "Block17_2_Branch_1_Conv2d_0b_1x7_Activation", "class_name": "Activation", "config": {"name": "Block17_2_Branch_1_Conv2d_0b_1x7_Activation", "trainable": true, "dtype": "float32", "activation": "relu"}, "inbound_nodes": [[["Block17_2_Branch_1_Conv2d_0b_1x7_BatchNorm", 0, 0, {}]]]}, {"name": "Block17_2_Branch_0_Conv2d_1x1", "class_name": "Conv2D", "config": {"name": "Block17_2_Branch_0_Conv2d_1x1", "trainable": true, "dtype": "float32", "filters": 128, "kernel_size": [1, 1], "strides": [1, 1], "padding": "same", "data_format": "channels_last", "dilation_rate": [1, 1], "activation": "linear", "use_bias": false, "kernel_initializer": {"class_name": "GlorotUniform", "config": {"seed": null, "dtype": "float32"}}, "bias_initializer": {"class_name": "Zeros", "config": {"dtype": "float32"}}, "kernel_regularizer": null, "bias_regularizer": null, "activity_regularizer": null, "kernel_constraint": null, "bias_constraint": null}, "inbound_nodes": [[["Block17_1_Activation", 0, 0, {}]]]}, {"name": "Block17_2_Branch_1_Conv2d_0c_7x1", "class_name": "Conv2D", "config": {"name": "Block17_2_Branch_1_Conv2d_0c_7x1", "trainable": true, "dtype": "float32", "filters": 128, "kernel_size": [7, 1], "strides": [1, 1], "padding": "same", "data_format": "channels_last", "dilation_rate": [1, 1], "activation": "linear", "use_bias": false, "kernel_initializer": {"class_name": "GlorotUniform", "config": {"seed": null, "dtype": "float32"}}, "bias_initializer": {"class_name": "Zeros", "config": {"dtype": "float32"}}, "kernel_regularizer": null, "bias_regularizer": null, "activity_regularizer": null, "kernel_constraint": null, "bias_constraint": null}, "inbound_nodes": [[["Block17_2_Branch_1_Conv2d_0b_1x7_Activation", 0, 0, {}]]]}, {"name": "Block17_2_Branch_0_Conv2d_1x1_BatchNorm", "class_name": "BatchNormalization", "config": {"name": "Block17_2_Branch_0_Conv2d_1x1_BatchNorm", "trainable": true, "dtype": "float32", "axis": [3], "momentum": 0.995, "epsilon": 0.001, "center": true, "scale": false, "beta_initializer": {"class_name": "Zeros", "config": {"dtype": "float32"}}, "gamma_initializer": {"class_name": "Ones", "config": {"dtype": "float32"}}, "moving_mean_initializer": {"class_name": "Zeros", "config": {"dtype": "float32"}}, "moving_variance_initializer": {"class_name": "Ones", "config": {"dtype": "float32"}}, "beta_regularizer": null, "gamma_regularizer": null, "beta_constraint": null, "gamma_constraint": null}, "inbound_nodes": [[["Block17_2_Branch_0_Conv2d_1x1", 0, 0, {}]]]}, {"name": "Block17_2_Branch_1_Conv2d_0c_7x1_BatchNorm", "class_name": "BatchNormalization", "config": {"name": "Block17_2_Branch_1_Conv2d_0c_7x1_BatchNorm", "trainable": true, "dtype": "float32", "axis": [3], "momentum": 0.995, "epsilon": 0.001, "center": true, "scale": false, "beta_initializer": {"class_name": "Zeros", "config": {"dtype": "float32"}}, "gamma_initializer": {"class_name": "Ones", "config": {"dtype": "float32"}}, "moving_mean_initializer": {"class_name": "Zeros", "config": {"dtype": "float32"}}, "moving_variance_initializer": {"class_name": "Ones", "config": {"dtype": "float32"}}, "beta_regularizer": null, "gamma_regularizer": null, "beta_constraint": null, "gamma_constraint": null}, "inbound_nodes": [[["Block17_2_Branch_1_Conv2d_0c_7x1", 0, 0, {}]]]}, {"name": "Block17_2_Branch_0_Conv2d_1x1_Activation", "class_name": "Activation", "config": {"name": "Block17_2_Branch_0_Conv2d_1x1_Activation", "trainable": true, "dtype": "float32", "activation": "relu"}, "inbound_nodes": [[["Block17_2_Branch_0_Conv2d_1x1_BatchNorm", 0, 0, {}]]]}, {"name": "Block17_2_Branch_1_Conv2d_0c_7x1_Activation", "class_name": "Activation", "config": {"name": "Block17_2_Branch_1_Conv2d_0c_7x1_Activation", "trainable": true, "dtype": "float32", "activation": "relu"}, "inbound_nodes": [[["Block17_2_Branch_1_Conv2d_0c_7x1_BatchNorm", 0, 0, {}]]]}, {"name": "Block17_2_Concatenate", "class_name": "Concatenate", "config": {"name": "Block17_2_Concatenate", "trainable": true, "dtype": "float32", "axis": 3}, "inbound_nodes": [[["Block17_2_Branch_0_Conv2d_1x1_Activation", 0, 0, {}], ["Block17_2_Branch_1_Conv2d_0c_7x1_Activation", 0, 0, {}]]]}, {"name": "Block17_2_Conv2d_1x1", "class_name": "Conv2D", "config": {"name": "Block17_2_Conv2d_1x1", "trainable": true, "dtype": "float32", "filters": 896, "kernel_size": [1, 1], "strides": [1, 1], "padding": "same", "data_format": "channels_last", "dilation_rate": [1, 1], "activation": "linear", "use_bias": true, "kernel_initializer": {"class_name": "GlorotUniform", "config": {"seed": null, "dtype": "float32"}}, "bias_initializer": {"class_name": "Zeros", "config": {"dtype": "float32"}}, "kernel_regularizer": null, "bias_regularizer": null, "activity_regularizer": null, "kernel_constraint": null, "bias_constraint": null}, "inbound_nodes": [[["Block17_2_Concatenate", 0, 0, {}]]]}, {"name": "hyper_scale_6", "class_name": "HyperScale", "config": {"name": "hyper_scale_6", "trainable": true, "dtype": "float32", "value": 0.1}, "inbound_nodes": [[["Block17_2_Conv2d_1x1", 0, 0, {}]]]}, {"name": "add_6", "class_name": "Add", "config": {"name": "add_6", "trainable": true, "dtype": "float32"}, "inbound_nodes": [[["Block17_1_Activation", 0, 0, {}], ["hyper_scale_6", 0, 0, {}]]]}, {"name": "Block17_2_Activation", "class_name": "Activation", "config": {"name": "Block17_2_Activation", "trainable": true, "dtype": "float32", "activation": "relu"}, "inbound_nodes": [[["add_6", 0, 0, {}]]]}, {"name": "Block17_3_Branch_1_Conv2d_0a_1x1", "class_name": "Conv2D", "config": {"name": "Block17_3_Branch_1_Conv2d_0a_1x1", "trainable": true, "dtype": "float32", "filters": 128, "kernel_size": [1, 1], "strides": [1, 1], "padding": "same", "data_format": "channels_last", "dilation_rate": [1, 1], "activation": "linear", "use_bias": false, "kernel_initializer": {"class_name": "GlorotUniform", "config": {"seed": null, "dtype": "float32"}}, "bias_initializer": {"class_name": "Zeros", "config": {"dtype": "float32"}}, "kernel_regularizer": null, "bias_regularizer": null, "activity_regularizer": null, "kernel_constraint": null, "bias_constraint": null}, "inbound_nodes": [[["Block17_2_Activation", 0, 0, {}]]]}, {"name": "Block17_3_Branch_1_Conv2d_0a_1x1_BatchNorm", "class_name": "BatchNormalization", "config": {"name": "Block17_3_Branch_1_Conv2d_0a_1x1_BatchNorm", "trainable": true, "dtype": "float32", "axis": [3], "momentum": 0.995, "epsilon": 0.001, "center": true, "scale": false, "beta_initializer": {"class_name": "Zeros", "config": {"dtype": "float32"}}, "gamma_initializer": {"class_name": "Ones", "config": {"dtype": "float32"}}, "moving_mean_initializer": {"class_name": "Zeros", "config": {"dtype": "float32"}}, "moving_variance_initializer": {"class_name": "Ones", "config": {"dtype": "float32"}}, "beta_regularizer": null, "gamma_regularizer": null, "beta_constraint": null, "gamma_constraint": null}, "inbound_nodes": [[["Block17_3_Branch_1_Conv2d_0a_1x1", 0, 0, {}]]]}, {"name": "Block17_3_Branch_1_Conv2d_0a_1x1_Activation", "class_name": "Activation", "config": {"name": "Block17_3_Branch_1_Conv2d_0a_1x1_Activation", "trainable": true, "dtype": "float32", "activation": "relu"}, "inbound_nodes": [[["Block17_3_Branch_1_Conv2d_0a_1x1_BatchNorm", 0, 0, {}]]]}, {"name": "Block17_3_Branch_1_Conv2d_0b_1x7", "class_name": "Conv2D", "config": {"name": "Block17_3_Branch_1_Conv2d_0b_1x7", "trainable": true, "dtype": "float32", "filters": 128, "kernel_size": [1, 7], "strides": [1, 1], "padding": "same", "data_format": "channels_last", "dilation_rate": [1, 1], "activation": "linear", "use_bias": false, "kernel_initializer": {"class_name": "GlorotUniform", "config": {"seed": null, "dtype": "float32"}}, "bias_initializer": {"class_name": "Zeros", "config": {"dtype": "float32"}}, "kernel_regularizer": null, "bias_regularizer": null, "activity_regularizer": null, "kernel_constraint": null, "bias_constraint": null}, "inbound_nodes": [[["Block17_3_Branch_1_Conv2d_0a_1x1_Activation", 0, 0, {}]]]}, {"name": "Block17_3_Branch_1_Conv2d_0b_1x7_BatchNorm", "class_name": "BatchNormalization", "config": {"name": "Block17_3_Branch_1_Conv2d_0b_1x7_BatchNorm", "trainable": true, "dtype": "float32", "axis": [3], "momentum": 0.995, "epsilon": 0.001, "center": true, "scale": false, "beta_initializer": {"class_name": "Zeros", "config": {"dtype": "float32"}}, "gamma_initializer": {"class_name": "Ones", "config": {"dtype": "float32"}}, "moving_mean_initializer": {"class_name": "Zeros", "config": {"dtype": "float32"}}, "moving_variance_initializer": {"class_name": "Ones", "config": {"dtype": "float32"}}, "beta_regularizer": null, "gamma_regularizer": null, "beta_constraint": null, "gamma_constraint": null}, "inbound_nodes": [[["Block17_3_Branch_1_Conv2d_0b_1x7", 0, 0, {}]]]}, {"name": "Block17_3_Branch_1_Conv2d_0b_1x7_Activation", "class_name": "Activation", "config": {"name": "Block17_3_Branch_1_Conv2d_0b_1x7_Activation", "trainable": true, "dtype": "float32", "activation": "relu"}, "inbound_nodes": [[["Block17_3_Branch_1_Conv2d_0b_1x7_BatchNorm", 0, 0, {}]]]}, {"name": "Block17_3_Branch_0_Conv2d_1x1", "class_name": "Conv2D", "config": {"name": "Block17_3_Branch_0_Conv2d_1x1", "trainable": true, "dtype": "float32", "filters": 128, "kernel_size": [1, 1], "strides": [1, 1], "padding": "same", "data_format": "channels_last", "dilation_rate": [1, 1], "activation": "linear", "use_bias": false, "kernel_initializer": {"class_name": "GlorotUniform", "config": {"seed": null, "dtype": "float32"}}, "bias_initializer": {"class_name": "Zeros", "config": {"dtype": "float32"}}, "kernel_regularizer": null, "bias_regularizer": null, "activity_regularizer": null, "kernel_constraint": null, "bias_constraint": null}, "inbound_nodes": [[["Block17_2_Activation", 0, 0, {}]]]}, {"name": "Block17_3_Branch_1_Conv2d_0c_7x1", "class_name": "Conv2D", "config": {"name": "Block17_3_Branch_1_Conv2d_0c_7x1", "trainable": true, "dtype": "float32", "filters": 128, "kernel_size": [7, 1], "strides": [1, 1], "padding": "same", "data_format": "channels_last", "dilation_rate": [1, 1], "activation": "linear", "use_bias": false, "kernel_initializer": {"class_name": "GlorotUniform", "config": {"seed": null, "dtype": "float32"}}, "bias_initializer": {"class_name": "Zeros", "config": {"dtype": "float32"}}, "kernel_regularizer": null, "bias_regularizer": null, "activity_regularizer": null, "kernel_constraint": null, "bias_constraint": null}, "inbound_nodes": [[["Block17_3_Branch_1_Conv2d_0b_1x7_Activation", 0, 0, {}]]]}, {"name": "Block17_3_Branch_0_Conv2d_1x1_BatchNorm", "class_name": "BatchNormalization", "config": {"name": "Block17_3_Branch_0_Conv2d_1x1_BatchNorm", "trainable": true, "dtype": "float32", "axis": [3], "momentum": 0.995, "epsilon": 0.001, "center": true, "scale": false, "beta_initializer": {"class_name": "Zeros", "config": {"dtype": "float32"}}, "gamma_initializer": {"class_name": "Ones", "config": {"dtype": "float32"}}, "moving_mean_initializer": {"class_name": "Zeros", "config": {"dtype": "float32"}}, "moving_variance_initializer": {"class_name": "Ones", "config": {"dtype": "float32"}}, "beta_regularizer": null, "gamma_regularizer": null, "beta_constraint": null, "gamma_constraint": null}, "inbound_nodes": [[["Block17_3_Branch_0_Conv2d_1x1", 0, 0, {}]]]}, {"name": "Block17_3_Branch_1_Conv2d_0c_7x1_BatchNorm", "class_name": "BatchNormalization", "config": {"name": "Block17_3_Branch_1_Conv2d_0c_7x1_BatchNorm", "trainable": true, "dtype": "float32", "axis": [3], "momentum": 0.995, "epsilon": 0.001, "center": true, "scale": false, "beta_initializer": {"class_name": "Zeros", "config": {"dtype": "float32"}}, "gamma_initializer": {"class_name": "Ones", "config": {"dtype": "float32"}}, "moving_mean_initializer": {"class_name": "Zeros", "config": {"dtype": "float32"}}, "moving_variance_initializer": {"class_name": "Ones", "config": {"dtype": "float32"}}, "beta_regularizer": null, "gamma_regularizer": null, "beta_constraint": null, "gamma_constraint": null}, "inbound_nodes": [[["Block17_3_Branch_1_Conv2d_0c_7x1", 0, 0, {}]]]}, {"name": "Block17_3_Branch_0_Conv2d_1x1_Activation", "class_name": "Activation", "config": {"name": "Block17_3_Branch_0_Conv2d_1x1_Activation", "trainable": true, "dtype": "float32", "activation": "relu"}, "inbound_nodes": [[["Block17_3_Branch_0_Conv2d_1x1_BatchNorm", 0, 0, {}]]]}, {"name": "Block17_3_Branch_1_Conv2d_0c_7x1_Activation", "class_name": "Activation", "config": {"name": "Block17_3_Branch_1_Conv2d_0c_7x1_Activation", "trainable": true, "dtype": "float32", "activation": "relu"}, "inbound_nodes": [[["Block17_3_Branch_1_Conv2d_0c_7x1_BatchNorm", 0, 0, {}]]]}, {"name": "Block17_3_Concatenate", "class_name": "Concatenate", "config": {"name": "Block17_3_Concatenate", "trainable": true, "dtype": "float32", "axis": 3}, "inbound_nodes": [[["Block17_3_Branch_0_Conv2d_1x1_Activation", 0, 0, {}], ["Block17_3_Branch_1_Conv2d_0c_7x1_Activation", 0, 0, {}]]]}, {"name": "Block17_3_Conv2d_1x1", "class_name": "Conv2D", "config": {"name": "Block17_3_Conv2d_1x1", "trainable": true, "dtype": "float32", "filters": 896, "kernel_size": [1, 1], "strides": [1, 1], "padding": "same", "data_format": "channels_last", "dilation_rate": [1, 1], "activation": "linear", "use_bias": true, "kernel_initializer": {"class_name": "GlorotUniform", "config": {"seed": null, "dtype": "float32"}}, "bias_initializer": {"class_name": "Zeros", "config": {"dtype": "float32"}}, "kernel_regularizer": null, "bias_regularizer": null, "activity_regularizer": null, "kernel_constraint": null, "bias_constraint": null}, "inbound_nodes": [[["Block17_3_Concatenate", 0, 0, {}]]]}, {"name": "hyper_scale_7", "class_name": "HyperScale", "config": {"name": "hyper_scale_7", "trainable": true, "dtype": "float32", "value": 0.1}, "inbound_nodes": [[["Block17_3_Conv2d_1x1", 0, 0, {}]]]}, {"name": "add_7", "class_name": "Add", "config": {"name": "add_7", "trainable": true, "dtype": "float32"}, "inbound_nodes": [[["Block17_2_Activation", 0, 0, {}], ["hyper_scale_7", 0, 0, {}]]]}, {"name": "Block17_3_Activation", "class_name": "Activation", "config": {"name": "Block17_3_Activation", "trainable": true, "dtype": "float32", "activation": "relu"}, "inbound_nodes": [[["add_7", 0, 0, {}]]]}, {"name": "Block17_4_Branch_1_Conv2d_0a_1x1", "class_name": "Conv2D", "config": {"name": "Block17_4_Branch_1_Conv2d_0a_1x1", "trainable": true, "dtype": "float32", "filters": 128, "kernel_size": [1, 1], "strides": [1, 1], "padding": "same", "data_format": "channels_last", "dilation_rate": [1, 1], "activation": "linear", "use_bias": false, "kernel_initializer": {"class_name": "GlorotUniform", "config": {"seed": null, "dtype": "float32"}}, "bias_initializer": {"class_name": "Zeros", "config": {"dtype": "float32"}}, "kernel_regularizer": null, "bias_regularizer": null, "activity_regularizer": null, "kernel_constraint": null, "bias_constraint": null}, "inbound_nodes": [[["Block17_3_Activation", 0, 0, {}]]]}, {"name": "Block17_4_Branch_1_Conv2d_0a_1x1_BatchNorm", "class_name": "BatchNormalization", "config": {"name": "Block17_4_Branch_1_Conv2d_0a_1x1_BatchNorm", "trainable": true, "dtype": "float32", "axis": [3], "momentum": 0.995, "epsilon": 0.001, "center": true, "scale": false, "beta_initializer": {"class_name": "Zeros", "config": {"dtype": "float32"}}, "gamma_initializer": {"class_name": "Ones", "config": {"dtype": "float32"}}, "moving_mean_initializer": {"class_name": "Zeros", "config": {"dtype": "float32"}}, "moving_variance_initializer": {"class_name": "Ones", "config": {"dtype": "float32"}}, "beta_regularizer": null, "gamma_regularizer": null, "beta_constraint": null, "gamma_constraint": null}, "inbound_nodes": [[["Block17_4_Branch_1_Conv2d_0a_1x1", 0, 0, {}]]]}, {"name": "Block17_4_Branch_1_Conv2d_0a_1x1_Activation", "class_name": "Activation", "config": {"name": "Block17_4_Branch_1_Conv2d_0a_1x1_Activation", "trainable": true, "dtype": "float32", "activation": "relu"}, "inbound_nodes": [[["Block17_4_Branch_1_Conv2d_0a_1x1_BatchNorm", 0, 0, {}]]]}, {"name": "Block17_4_Branch_1_Conv2d_0b_1x7", "class_name": "Conv2D", "config": {"name": "Block17_4_Branch_1_Conv2d_0b_1x7", "trainable": true, "dtype": "float32", "filters": 128, "kernel_size": [1, 7], "strides": [1, 1], "padding": "same", "data_format": "channels_last", "dilation_rate": [1, 1], "activation": "linear", "use_bias": false, "kernel_initializer": {"class_name": "GlorotUniform", "config": {"seed": null, "dtype": "float32"}}, "bias_initializer": {"class_name": "Zeros", "config": {"dtype": "float32"}}, "kernel_regularizer": null, "bias_regularizer": null, "activity_regularizer": null, "kernel_constraint": null, "bias_constraint": null}, "inbound_nodes": [[["Block17_4_Branch_1_Conv2d_0a_1x1_Activation", 0, 0, {}]]]}, {"name": "Block17_4_Branch_1_Conv2d_0b_1x7_BatchNorm", "class_name": "BatchNormalization", "config": {"name": "Block17_4_Branch_1_Conv2d_0b_1x7_BatchNorm", "trainable": true, "dtype": "float32", "axis": [3], "momentum": 0.995, "epsilon": 0.001, "center": true, "scale": false, "beta_initializer": {"class_name": "Zeros", "config": {"dtype": "float32"}}, "gamma_initializer": {"class_name": "Ones", "config": {"dtype": "float32"}}, "moving_mean_initializer": {"class_name": "Zeros", "config": {"dtype": "float32"}}, "moving_variance_initializer": {"class_name": "Ones", "config": {"dtype": "float32"}}, "beta_regularizer": null, "gamma_regularizer": null, "beta_constraint": null, "gamma_constraint": null}, "inbound_nodes": [[["Block17_4_Branch_1_Conv2d_0b_1x7", 0, 0, {}]]]}, {"name": "Block17_4_Branch_1_Conv2d_0b_1x7_Activation", "class_name": "Activation", "config": {"name": "Block17_4_Branch_1_Conv2d_0b_1x7_Activation", "trainable": true, "dtype": "float32", "activation": "relu"}, "inbound_nodes": [[["Block17_4_Branch_1_Conv2d_0b_1x7_BatchNorm", 0, 0, {}]]]}, {"name": "Block17_4_Branch_0_Conv2d_1x1", "class_name": "Conv2D", "config": {"name": "Block17_4_Branch_0_Conv2d_1x1", "trainable": true, "dtype": "float32", "filters": 128, "kernel_size": [1, 1], "strides": [1, 1], "padding": "same", "data_format": "channels_last", "dilation_rate": [1, 1], "activation": "linear", "use_bias": false, "kernel_initializer": {"class_name": "GlorotUniform", "config": {"seed": null, "dtype": "float32"}}, "bias_initializer": {"class_name": "Zeros", "config": {"dtype": "float32"}}, "kernel_regularizer": null, "bias_regularizer": null, "activity_regularizer": null, "kernel_constraint": null, "bias_constraint": null}, "inbound_nodes": [[["Block17_3_Activation", 0, 0, {}]]]}, {"name": "Block17_4_Branch_1_Conv2d_0c_7x1", "class_name": "Conv2D", "config": {"name": "Block17_4_Branch_1_Conv2d_0c_7x1", "trainable": true, "dtype": "float32", "filters": 128, "kernel_size": [7, 1], "strides": [1, 1], "padding": "same", "data_format": "channels_last", "dilation_rate": [1, 1], "activation": "linear", "use_bias": false, "kernel_initializer": {"class_name": "GlorotUniform", "config": {"seed": null, "dtype": "float32"}}, "bias_initializer": {"class_name": "Zeros", "config": {"dtype": "float32"}}, "kernel_regularizer": null, "bias_regularizer": null, "activity_regularizer": null, "kernel_constraint": null, "bias_constraint": null}, "inbound_nodes": [[["Block17_4_Branch_1_Conv2d_0b_1x7_Activation", 0, 0, {}]]]}, {"name": "Block17_4_Branch_0_Conv2d_1x1_BatchNorm", "class_name": "BatchNormalization", "config": {"name": "Block17_4_Branch_0_Conv2d_1x1_BatchNorm", "trainable": true, "dtype": "float32", "axis": [3], "momentum": 0.995, "epsilon": 0.001, "center": true, "scale": false, "beta_initializer": {"class_name": "Zeros", "config": {"dtype": "float32"}}, "gamma_initializer": {"class_name": "Ones", "config": {"dtype": "float32"}}, "moving_mean_initializer": {"class_name": "Zeros", "config": {"dtype": "float32"}}, "moving_variance_initializer": {"class_name": "Ones", "config": {"dtype": "float32"}}, "beta_regularizer": null, "gamma_regularizer": null, "beta_constraint": null, "gamma_constraint": null}, "inbound_nodes": [[["Block17_4_Branch_0_Conv2d_1x1", 0, 0, {}]]]}, {"name": "Block17_4_Branch_1_Conv2d_0c_7x1_BatchNorm", "class_name": "BatchNormalization", "config": {"name": "Block17_4_Branch_1_Conv2d_0c_7x1_BatchNorm", "trainable": true, "dtype": "float32", "axis": [3], "momentum": 0.995, "epsilon": 0.001, "center": true, "scale": false, "beta_initializer": {"class_name": "Zeros", "config": {"dtype": "float32"}}, "gamma_initializer": {"class_name": "Ones", "config": {"dtype": "float32"}}, "moving_mean_initializer": {"class_name": "Zeros", "config": {"dtype": "float32"}}, "moving_variance_initializer": {"class_name": "Ones", "config": {"dtype": "float32"}}, "beta_regularizer": null, "gamma_regularizer": null, "beta_constraint": null, "gamma_constraint": null}, "inbound_nodes": [[["Block17_4_Branch_1_Conv2d_0c_7x1", 0, 0, {}]]]}, {"name": "Block17_4_Branch_0_Conv2d_1x1_Activation", "class_name": "Activation", "config": {"name": "Block17_4_Branch_0_Conv2d_1x1_Activation", "trainable": true, "dtype": "float32", "activation": "relu"}, "inbound_nodes": [[["Block17_4_Branch_0_Conv2d_1x1_BatchNorm", 0, 0, {}]]]}, {"name": "Block17_4_Branch_1_Conv2d_0c_7x1_Activation", "class_name": "Activation", "config": {"name": "Block17_4_Branch_1_Conv2d_0c_7x1_Activation", "trainable": true, "dtype": "float32", "activation": "relu"}, "inbound_nodes": [[["Block17_4_Branch_1_Conv2d_0c_7x1_BatchNorm", 0, 0, {}]]]}, {"name": "Block17_4_Concatenate", "class_name": "Concatenate", "config": {"name": "Block17_4_Concatenate", "trainable": true, "dtype": "float32", "axis": 3}, "inbound_nodes": [[["Block17_4_Branch_0_Conv2d_1x1_Activation", 0, 0, {}], ["Block17_4_Branch_1_Conv2d_0c_7x1_Activation", 0, 0, {}]]]}, {"name": "Block17_4_Conv2d_1x1", "class_name": "Conv2D", "config": {"name": "Block17_4_Conv2d_1x1", "trainable": true, "dtype": "float32", "filters": 896, "kernel_size": [1, 1], "strides": [1, 1], "padding": "same", "data_format": "channels_last", "dilation_rate": [1, 1], "activation": "linear", "use_bias": true, "kernel_initializer": {"class_name": "GlorotUniform", "config": {"seed": null, "dtype": "float32"}}, "bias_initializer": {"class_name": "Zeros", "config": {"dtype": "float32"}}, "kernel_regularizer": null, "bias_regularizer": null, "activity_regularizer": null, "kernel_constraint": null, "bias_constraint": null}, "inbound_nodes": [[["Block17_4_Concatenate", 0, 0, {}]]]}, {"name": "hyper_scale_8", "class_name": "HyperScale", "config": {"name": "hyper_scale_8", "trainable": true, "dtype": "float32", "value": 0.1}, "inbound_nodes": [[["Block17_4_Conv2d_1x1", 0, 0, {}]]]}, {"name": "add_8", "class_name": "Add", "config": {"name": "add_8", "trainable": true, "dtype": "float32"}, "inbound_nodes": [[["Block17_3_Activation", 0, 0, {}], ["hyper_scale_8", 0, 0, {}]]]}, {"name": "Block17_4_Activation", "class_name": "Activation", "config": {"name": "Block17_4_Activation", "trainable": true, "dtype": "float32", "activation": "relu"}, "inbound_nodes": [[["add_8", 0, 0, {}]]]}, {"name": "Block17_5_Branch_1_Conv2d_0a_1x1", "class_name": "Conv2D", "config": {"name": "Block17_5_Branch_1_Conv2d_0a_1x1", "trainable": true, "dtype": "float32", "filters": 128, "kernel_size": [1, 1], "strides": [1, 1], "padding": "same", "data_format": "channels_last", "dilation_rate": [1, 1], "activation": "linear", "use_bias": false, "kernel_initializer": {"class_name": "GlorotUniform", "config": {"seed": null, "dtype": "float32"}}, "bias_initializer": {"class_name": "Zeros", "config": {"dtype": "float32"}}, "kernel_regularizer": null, "bias_regularizer": null, "activity_regularizer": null, "kernel_constraint": null, "bias_constraint": null}, "inbound_nodes": [[["Block17_4_Activation", 0, 0, {}]]]}, {"name": "Block17_5_Branch_1_Conv2d_0a_1x1_BatchNorm", "class_name": "BatchNormalization", "config": {"name": "Block17_5_Branch_1_Conv2d_0a_1x1_BatchNorm", "trainable": true, "dtype": "float32", "axis": [3], "momentum": 0.995, "epsilon": 0.001, "center": true, "scale": false, "beta_initializer": {"class_name": "Zeros", "config": {"dtype": "float32"}}, "gamma_initializer": {"class_name": "Ones", "config": {"dtype": "float32"}}, "moving_mean_initializer": {"class_name": "Zeros", "config": {"dtype": "float32"}}, "moving_variance_initializer": {"class_name": "Ones", "config": {"dtype": "float32"}}, "beta_regularizer": null, "gamma_regularizer": null, "beta_constraint": null, "gamma_constraint": null}, "inbound_nodes": [[["Block17_5_Branch_1_Conv2d_0a_1x1", 0, 0, {}]]]}, {"name": "Block17_5_Branch_1_Conv2d_0a_1x1_Activation", "class_name": "Activation", "config": {"name": "Block17_5_Branch_1_Conv2d_0a_1x1_Activation", "trainable": true, "dtype": "float32", "activation": "relu"}, "inbound_nodes": [[["Block17_5_Branch_1_Conv2d_0a_1x1_BatchNorm", 0, 0, {}]]]}, {"name": "Block17_5_Branch_1_Conv2d_0b_1x7", "class_name": "Conv2D", "config": {"name": "Block17_5_Branch_1_Conv2d_0b_1x7", "trainable": true, "dtype": "float32", "filters": 128, "kernel_size": [1, 7], "strides": [1, 1], "padding": "same", "data_format": "channels_last", "dilation_rate": [1, 1], "activation": "linear", "use_bias": false, "kernel_initializer": {"class_name": "GlorotUniform", "config": {"seed": null, "dtype": "float32"}}, "bias_initializer": {"class_name": "Zeros", "config": {"dtype": "float32"}}, "kernel_regularizer": null, "bias_regularizer": null, "activity_regularizer": null, "kernel_constraint": null, "bias_constraint": null}, "inbound_nodes": [[["Block17_5_Branch_1_Conv2d_0a_1x1_Activation", 0, 0, {}]]]}, {"name": "Block17_5_Branch_1_Conv2d_0b_1x7_BatchNorm", "class_name": "BatchNormalization", "config": {"name": "Block17_5_Branch_1_Conv2d_0b_1x7_BatchNorm", "trainable": true, "dtype": "float32", "axis": [3], "momentum": 0.995, "epsilon": 0.001, "center": true, "scale": false, "beta_initializer": {"class_name": "Zeros", "config": {"dtype": "float32"}}, "gamma_initializer": {"class_name": "Ones", "config": {"dtype": "float32"}}, "moving_mean_initializer": {"class_name": "Zeros", "config": {"dtype": "float32"}}, "moving_variance_initializer": {"class_name": "Ones", "config": {"dtype": "float32"}}, "beta_regularizer": null, "gamma_regularizer": null, "beta_constraint": null, "gamma_constraint": null}, "inbound_nodes": [[["Block17_5_Branch_1_Conv2d_0b_1x7", 0, 0, {}]]]}, {"name": "Block17_5_Branch_1_Conv2d_0b_1x7_Activation", "class_name": "Activation", "config": {"name": "Block17_5_Branch_1_Conv2d_0b_1x7_Activation", "trainable": true, "dtype": "float32", "activation": "relu"}, "inbound_nodes": [[["Block17_5_Branch_1_Conv2d_0b_1x7_BatchNorm", 0, 0, {}]]]}, {"name": "Block17_5_Branch_0_Conv2d_1x1", "class_name": "Conv2D", "config": {"name": "Block17_5_Branch_0_Conv2d_1x1", "trainable": true, "dtype": "float32", "filters": 128, "kernel_size": [1, 1], "strides": [1, 1], "padding": "same", "data_format": "channels_last", "dilation_rate": [1, 1], "activation": "linear", "use_bias": false, "kernel_initializer": {"class_name": "GlorotUniform", "config": {"seed": null, "dtype": "float32"}}, "bias_initializer": {"class_name": "Zeros", "config": {"dtype": "float32"}}, "kernel_regularizer": null, "bias_regularizer": null, "activity_regularizer": null, "kernel_constraint": null, "bias_constraint": null}, "inbound_nodes": [[["Block17_4_Activation", 0, 0, {}]]]}, {"name": "Block17_5_Branch_1_Conv2d_0c_7x1", "class_name": "Conv2D", "config": {"name": "Block17_5_Branch_1_Conv2d_0c_7x1", "trainable": true, "dtype": "float32", "filters": 128, "kernel_size": [7, 1], "strides": [1, 1], "padding": "same", "data_format": "channels_last", "dilation_rate": [1, 1], "activation": "linear", "use_bias": false, "kernel_initializer": {"class_name": "GlorotUniform", "config": {"seed": null, "dtype": "float32"}}, "bias_initializer": {"class_name": "Zeros", "config": {"dtype": "float32"}}, "kernel_regularizer": null, "bias_regularizer": null, "activity_regularizer": null, "kernel_constraint": null, "bias_constraint": null}, "inbound_nodes": [[["Block17_5_Branch_1_Conv2d_0b_1x7_Activation", 0, 0, {}]]]}, {"name": "Block17_5_Branch_0_Conv2d_1x1_BatchNorm", "class_name": "BatchNormalization", "config": {"name": "Block17_5_Branch_0_Conv2d_1x1_BatchNorm", "trainable": true, "dtype": "float32", "axis": [3], "momentum": 0.995, "epsilon": 0.001, "center": true, "scale": false, "beta_initializer": {"class_name": "Zeros", "config": {"dtype": "float32"}}, "gamma_initializer": {"class_name": "Ones", "config": {"dtype": "float32"}}, "moving_mean_initializer": {"class_name": "Zeros", "config": {"dtype": "float32"}}, "moving_variance_initializer": {"class_name": "Ones", "config": {"dtype": "float32"}}, "beta_regularizer": null, "gamma_regularizer": null, "beta_constraint": null, "gamma_constraint": null}, "inbound_nodes": [[["Block17_5_Branch_0_Conv2d_1x1", 0, 0, {}]]]}, {"name": "Block17_5_Branch_1_Conv2d_0c_7x1_BatchNorm", "class_name": "BatchNormalization", "config": {"name": "Block17_5_Branch_1_Conv2d_0c_7x1_BatchNorm", "trainable": true, "dtype": "float32", "axis": [3], "momentum": 0.995, "epsilon": 0.001, "center": true, "scale": false, "beta_initializer": {"class_name": "Zeros", "config": {"dtype": "float32"}}, "gamma_initializer": {"class_name": "Ones", "config": {"dtype": "float32"}}, "moving_mean_initializer": {"class_name": "Zeros", "config": {"dtype": "float32"}}, "moving_variance_initializer": {"class_name": "Ones", "config": {"dtype": "float32"}}, "beta_regularizer": null, "gamma_regularizer": null, "beta_constraint": null, "gamma_constraint": null}, "inbound_nodes": [[["Block17_5_Branch_1_Conv2d_0c_7x1", 0, 0, {}]]]}, {"name": "Block17_5_Branch_0_Conv2d_1x1_Activation", "class_name": "Activation", "config": {"name": "Block17_5_Branch_0_Conv2d_1x1_Activation", "trainable": true, "dtype": "float32", "activation": "relu"}, "inbound_nodes": [[["Block17_5_Branch_0_Conv2d_1x1_BatchNorm", 0, 0, {}]]]}, {"name": "Block17_5_Branch_1_Conv2d_0c_7x1_Activation", "class_name": "Activation", "config": {"name": "Block17_5_Branch_1_Conv2d_0c_7x1_Activation", "trainable": true, "dtype": "float32", "activation": "relu"}, "inbound_nodes": [[["Block17_5_Branch_1_Conv2d_0c_7x1_BatchNorm", 0, 0, {}]]]}, {"name": "Block17_5_Concatenate", "class_name": "Concatenate", "config": {"name": "Block17_5_Concatenate", "trainable": true, "dtype": "float32", "axis": 3}, "inbound_nodes": [[["Block17_5_Branch_0_Conv2d_1x1_Activation", 0, 0, {}], ["Block17_5_Branch_1_Conv2d_0c_7x1_Activation", 0, 0, {}]]]}, {"name": "Block17_5_Conv2d_1x1", "class_name": "Conv2D", "config": {"name": "Block17_5_Conv2d_1x1", "trainable": true, "dtype": "float32", "filters": 896, "kernel_size": [1, 1], "strides": [1, 1], "padding": "same", "data_format": "channels_last", "dilation_rate": [1, 1], "activation": "linear", "use_bias": true, "kernel_initializer": {"class_name": "GlorotUniform", "config": {"seed": null, "dtype": "float32"}}, "bias_initializer": {"class_name": "Zeros", "config": {"dtype": "float32"}}, "kernel_regularizer": null, "bias_regularizer": null, "activity_regularizer": null, "kernel_constraint": null, "bias_constraint": null}, "inbound_nodes": [[["Block17_5_Concatenate", 0, 0, {}]]]}, {"name": "hyper_scale_9", "class_name": "HyperScale", "config": {"name": "hyper_scale_9", "trainable": true, "dtype": "float32", "value": 0.1}, "inbound_nodes": [[["Block17_5_Conv2d_1x1", 0, 0, {}]]]}, {"name": "add_9", "class_name": "Add", "config": {"name": "add_9", "trainable": true, "dtype": "float32"}, "inbound_nodes": [[["Block17_4_Activation", 0, 0, {}], ["hyper_scale_9", 0, 0, {}]]]}, {"name": "Block17_5_Activation", "class_name": "Activation", "config": {"name": "Block17_5_Activation", "trainable": true, "dtype": "float32", "activation": "relu"}, "inbound_nodes": [[["add_9", 0, 0, {}]]]}, {"name": "Block17_6_Branch_1_Conv2d_0a_1x1", "class_name": "Conv2D", "config": {"name": "Block17_6_Branch_1_Conv2d_0a_1x1", "trainable": true, "dtype": "float32", "filters": 128, "kernel_size": [1, 1], "strides": [1, 1], "padding": "same", "data_format": "channels_last", "dilation_rate": [1, 1], "activation": "linear", "use_bias": false, "kernel_initializer": {"class_name": "GlorotUniform", "config": {"seed": null, "dtype": "float32"}}, "bias_initializer": {"class_name": "Zeros", "config": {"dtype": "float32"}}, "kernel_regularizer": null, "bias_regularizer": null, "activity_regularizer": null, "kernel_constraint": null, "bias_constraint": null}, "inbound_nodes": [[["Block17_5_Activation", 0, 0, {}]]]}, {"name": "Block17_6_Branch_1_Conv2d_0a_1x1_BatchNorm", "class_name": "BatchNormalization", "config": {"name": "Block17_6_Branch_1_Conv2d_0a_1x1_BatchNorm", "trainable": true, "dtype": "float32", "axis": [3], "momentum": 0.995, "epsilon": 0.001, "center": true, "scale": false, "beta_initializer": {"class_name": "Zeros", "config": {"dtype": "float32"}}, "gamma_initializer": {"class_name": "Ones", "config": {"dtype": "float32"}}, "moving_mean_initializer": {"class_name": "Zeros", "config": {"dtype": "float32"}}, "moving_variance_initializer": {"class_name": "Ones", "config": {"dtype": "float32"}}, "beta_regularizer": null, "gamma_regularizer": null, "beta_constraint": null, "gamma_constraint": null}, "inbound_nodes": [[["Block17_6_Branch_1_Conv2d_0a_1x1", 0, 0, {}]]]}, {"name": "Block17_6_Branch_1_Conv2d_0a_1x1_Activation", "class_name": "Activation", "config": {"name": "Block17_6_Branch_1_Conv2d_0a_1x1_Activation", "trainable": true, "dtype": "float32", "activation": "relu"}, "inbound_nodes": [[["Block17_6_Branch_1_Conv2d_0a_1x1_BatchNorm", 0, 0, {}]]]}, {"name": "Block17_6_Branch_1_Conv2d_0b_1x7", "class_name": "Conv2D", "config": {"name": "Block17_6_Branch_1_Conv2d_0b_1x7", "trainable": true, "dtype": "float32", "filters": 128, "kernel_size": [1, 7], "strides": [1, 1], "padding": "same", "data_format": "channels_last", "dilation_rate": [1, 1], "activation": "linear", "use_bias": false, "kernel_initializer": {"class_name": "GlorotUniform", "config": {"seed": null, "dtype": "float32"}}, "bias_initializer": {"class_name": "Zeros", "config": {"dtype": "float32"}}, "kernel_regularizer": null, "bias_regularizer": null, "activity_regularizer": null, "kernel_constraint": null, "bias_constraint": null}, "inbound_nodes": [[["Block17_6_Branch_1_Conv2d_0a_1x1_Activation", 0, 0, {}]]]}, {"name": "Block17_6_Branch_1_Conv2d_0b_1x7_BatchNorm", "class_name": "BatchNormalization", "config": {"name": "Block17_6_Branch_1_Conv2d_0b_1x7_BatchNorm", "trainable": true, "dtype": "float32", "axis": [3], "momentum": 0.995, "epsilon": 0.001, "center": true, "scale": false, "beta_initializer": {"class_name": "Zeros", "config": {"dtype": "float32"}}, "gamma_initializer": {"class_name": "Ones", "config": {"dtype": "float32"}}, "moving_mean_initializer": {"class_name": "Zeros", "config": {"dtype": "float32"}}, "moving_variance_initializer": {"class_name": "Ones", "config": {"dtype": "float32"}}, "beta_regularizer": null, "gamma_regularizer": null, "beta_constraint": null, "gamma_constraint": null}, "inbound_nodes": [[["Block17_6_Branch_1_Conv2d_0b_1x7", 0, 0, {}]]]}, {"name": "Block17_6_Branch_1_Conv2d_0b_1x7_Activation", "class_name": "Activation", "config": {"name": "Block17_6_Branch_1_Conv2d_0b_1x7_Activation", "trainable": true, "dtype": "float32", "activation": "relu"}, "inbound_nodes": [[["Block17_6_Branch_1_Conv2d_0b_1x7_BatchNorm", 0, 0, {}]]]}, {"name": "Block17_6_Branch_0_Conv2d_1x1", "class_name": "Conv2D", "config": {"name": "Block17_6_Branch_0_Conv2d_1x1", "trainable": true, "dtype": "float32", "filters": 128, "kernel_size": [1, 1], "strides": [1, 1], "padding": "same", "data_format": "channels_last", "dilation_rate": [1, 1], "activation": "linear", "use_bias": false, "kernel_initializer": {"class_name": "GlorotUniform", "config": {"seed": null, "dtype": "float32"}}, "bias_initializer": {"class_name": "Zeros", "config": {"dtype": "float32"}}, "kernel_regularizer": null, "bias_regularizer": null, "activity_regularizer": null, "kernel_constraint": null, "bias_constraint": null}, "inbound_nodes": [[["Block17_5_Activation", 0, 0, {}]]]}, {"name": "Block17_6_Branch_1_Conv2d_0c_7x1", "class_name": "Conv2D", "config": {"name": "Block17_6_Branch_1_Conv2d_0c_7x1", "trainable": true, "dtype": "float32", "filters": 128, "kernel_size": [7, 1], "strides": [1, 1], "padding": "same", "data_format": "channels_last", "dilation_rate": [1, 1], "activation": "linear", "use_bias": false, "kernel_initializer": {"class_name": "GlorotUniform", "config": {"seed": null, "dtype": "float32"}}, "bias_initializer": {"class_name": "Zeros", "config": {"dtype": "float32"}}, "kernel_regularizer": null, "bias_regularizer": null, "activity_regularizer": null, "kernel_constraint": null, "bias_constraint": null}, "inbound_nodes": [[["Block17_6_Branch_1_Conv2d_0b_1x7_Activation", 0, 0, {}]]]}, {"name": "Block17_6_Branch_0_Conv2d_1x1_BatchNorm", "class_name": "BatchNormalization", "config": {"name": "Block17_6_Branch_0_Conv2d_1x1_BatchNorm", "trainable": true, "dtype": "float32", "axis": [3], "momentum": 0.995, "epsilon": 0.001, "center": true, "scale": false, "beta_initializer": {"class_name": "Zeros", "config": {"dtype": "float32"}}, "gamma_initializer": {"class_name": "Ones", "config": {"dtype": "float32"}}, "moving_mean_initializer": {"class_name": "Zeros", "config": {"dtype": "float32"}}, "moving_variance_initializer": {"class_name": "Ones", "config": {"dtype": "float32"}}, "beta_regularizer": null, "gamma_regularizer": null, "beta_constraint": null, "gamma_constraint": null}, "inbound_nodes": [[["Block17_6_Branch_0_Conv2d_1x1", 0, 0, {}]]]}, {"name": "Block17_6_Branch_1_Conv2d_0c_7x1_BatchNorm", "class_name": "BatchNormalization", "config": {"name": "Block17_6_Branch_1_Conv2d_0c_7x1_BatchNorm", "trainable": true, "dtype": "float32", "axis": [3], "momentum": 0.995, "epsilon": 0.001, "center": true, "scale": false, "beta_initializer": {"class_name": "Zeros", "config": {"dtype": "float32"}}, "gamma_initializer": {"class_name": "Ones", "config": {"dtype": "float32"}}, "moving_mean_initializer": {"class_name": "Zeros", "config": {"dtype": "float32"}}, "moving_variance_initializer": {"class_name": "Ones", "config": {"dtype": "float32"}}, "beta_regularizer": null, "gamma_regularizer": null, "beta_constraint": null, "gamma_constraint": null}, "inbound_nodes": [[["Block17_6_Branch_1_Conv2d_0c_7x1", 0, 0, {}]]]}, {"name": "Block17_6_Branch_0_Conv2d_1x1_Activation", "class_name": "Activation", "config": {"name": "Block17_6_Branch_0_Conv2d_1x1_Activation", "trainable": true, "dtype": "float32", "activation": "relu"}, "inbound_nodes": [[["Block17_6_Branch_0_Conv2d_1x1_BatchNorm", 0, 0, {}]]]}, {"name": "Block17_6_Branch_1_Conv2d_0c_7x1_Activation", "class_name": "Activation", "config": {"name": "Block17_6_Branch_1_Conv2d_0c_7x1_Activation", "trainable": true, "dtype": "float32", "activation": "relu"}, "inbound_nodes": [[["Block17_6_Branch_1_Conv2d_0c_7x1_BatchNorm", 0, 0, {}]]]}, {"name": "Block17_6_Concatenate", "class_name": "Concatenate", "config": {"name": "Block17_6_Concatenate", "trainable": true, "dtype": "float32", "axis": 3}, "inbound_nodes": [[["Block17_6_Branch_0_Conv2d_1x1_Activation", 0, 0, {}], ["Block17_6_Branch_1_Conv2d_0c_7x1_Activation", 0, 0, {}]]]}, {"name": "Block17_6_Conv2d_1x1", "class_name": "Conv2D", "config": {"name": "Block17_6_Conv2d_1x1", "trainable": true, "dtype": "float32", "filters": 896, "kernel_size": [1, 1], "strides": [1, 1], "padding": "same", "data_format": "channels_last", "dilation_rate": [1, 1], "activation": "linear", "use_bias": true, "kernel_initializer": {"class_name": "GlorotUniform", "config": {"seed": null, "dtype": "float32"}}, "bias_initializer": {"class_name": "Zeros", "config": {"dtype": "float32"}}, "kernel_regularizer": null, "bias_regularizer": null, "activity_regularizer": null, "kernel_constraint": null, "bias_constraint": null}, "inbound_nodes": [[["Block17_6_Concatenate", 0, 0, {}]]]}, {"name": "hyper_scale_10", "class_name": "HyperScale", "config": {"name": "hyper_scale_10", "trainable": true, "dtype": "float32", "value": 0.1}, "inbound_nodes": [[["Block17_6_Conv2d_1x1", 0, 0, {}]]]}, {"name": "add_10", "class_name": "Add", "config": {"name": "add_10", "trainable": true, "dtype": "float32"}, "inbound_nodes": [[["Block17_5_Activation", 0, 0, {}], ["hyper_scale_10", 0, 0, {}]]]}, {"name": "Block17_6_Activation", "class_name": "Activation", "config": {"name": "Block17_6_Activation", "trainable": true, "dtype": "float32", "activation": "relu"}, "inbound_nodes": [[["add_10", 0, 0, {}]]]}, {"name": "Block17_7_Branch_1_Conv2d_0a_1x1", "class_name": "Conv2D", "config": {"name": "Block17_7_Branch_1_Conv2d_0a_1x1", "trainable": true, "dtype": "float32", "filters": 128, "kernel_size": [1, 1], "strides": [1, 1], "padding": "same", "data_format": "channels_last", "dilation_rate": [1, 1], "activation": "linear", "use_bias": false, "kernel_initializer": {"class_name": "GlorotUniform", "config": {"seed": null, "dtype": "float32"}}, "bias_initializer": {"class_name": "Zeros", "config": {"dtype": "float32"}}, "kernel_regularizer": null, "bias_regularizer": null, "activity_regularizer": null, "kernel_constraint": null, "bias_constraint": null}, "inbound_nodes": [[["Block17_6_Activation", 0, 0, {}]]]}, {"name": "Block17_7_Branch_1_Conv2d_0a_1x1_BatchNorm", "class_name": "BatchNormalization", "config": {"name": "Block17_7_Branch_1_Conv2d_0a_1x1_BatchNorm", "trainable": true, "dtype": "float32", "axis": [3], "momentum": 0.995, "epsilon": 0.001, "center": true, "scale": false, "beta_initializer": {"class_name": "Zeros", "config": {"dtype": "float32"}}, "gamma_initializer": {"class_name": "Ones", "config": {"dtype": "float32"}}, "moving_mean_initializer": {"class_name": "Zeros", "config": {"dtype": "float32"}}, "moving_variance_initializer": {"class_name": "Ones", "config": {"dtype": "float32"}}, "beta_regularizer": null, "gamma_regularizer": null, "beta_constraint": null, "gamma_constraint": null}, "inbound_nodes": [[["Block17_7_Branch_1_Conv2d_0a_1x1", 0, 0, {}]]]}, {"name": "Block17_7_Branch_1_Conv2d_0a_1x1_Activation", "class_name": "Activation", "config": {"name": "Block17_7_Branch_1_Conv2d_0a_1x1_Activation", "trainable": true, "dtype": "float32", "activation": "relu"}, "inbound_nodes": [[["Block17_7_Branch_1_Conv2d_0a_1x1_BatchNorm", 0, 0, {}]]]}, {"name": "Block17_7_Branch_1_Conv2d_0b_1x7", "class_name": "Conv2D", "config": {"name": "Block17_7_Branch_1_Conv2d_0b_1x7", "trainable": true, "dtype": "float32", "filters": 128, "kernel_size": [1, 7], "strides": [1, 1], "padding": "same", "data_format": "channels_last", "dilation_rate": [1, 1], "activation": "linear", "use_bias": false, "kernel_initializer": {"class_name": "GlorotUniform", "config": {"seed": null, "dtype": "float32"}}, "bias_initializer": {"class_name": "Zeros", "config": {"dtype": "float32"}}, "kernel_regularizer": null, "bias_regularizer": null, "activity_regularizer": null, "kernel_constraint": null, "bias_constraint": null}, "inbound_nodes": [[["Block17_7_Branch_1_Conv2d_0a_1x1_Activation", 0, 0, {}]]]}, {"name": "Block17_7_Branch_1_Conv2d_0b_1x7_BatchNorm", "class_name": "BatchNormalization", "config": {"name": "Block17_7_Branch_1_Conv2d_0b_1x7_BatchNorm", "trainable": true, "dtype": "float32", "axis": [3], "momentum": 0.995, "epsilon": 0.001, "center": true, "scale": false, "beta_initializer": {"class_name": "Zeros", "config": {"dtype": "float32"}}, "gamma_initializer": {"class_name": "Ones", "config": {"dtype": "float32"}}, "moving_mean_initializer": {"class_name": "Zeros", "config": {"dtype": "float32"}}, "moving_variance_initializer": {"class_name": "Ones", "config": {"dtype": "float32"}}, "beta_regularizer": null, "gamma_regularizer": null, "beta_constraint": null, "gamma_constraint": null}, "inbound_nodes": [[["Block17_7_Branch_1_Conv2d_0b_1x7", 0, 0, {}]]]}, {"name": "Block17_7_Branch_1_Conv2d_0b_1x7_Activation", "class_name": "Activation", "config": {"name": "Block17_7_Branch_1_Conv2d_0b_1x7_Activation", "trainable": true, "dtype": "float32", "activation": "relu"}, "inbound_nodes": [[["Block17_7_Branch_1_Conv2d_0b_1x7_BatchNorm", 0, 0, {}]]]}, {"name": "Block17_7_Branch_0_Conv2d_1x1", "class_name": "Conv2D", "config": {"name": "Block17_7_Branch_0_Conv2d_1x1", "trainable": true, "dtype": "float32", "filters": 128, "kernel_size": [1, 1], "strides": [1, 1], "padding": "same", "data_format": "channels_last", "dilation_rate": [1, 1], "activation": "linear", "use_bias": false, "kernel_initializer": {"class_name": "GlorotUniform", "config": {"seed": null, "dtype": "float32"}}, "bias_initializer": {"class_name": "Zeros", "config": {"dtype": "float32"}}, "kernel_regularizer": null, "bias_regularizer": null, "activity_regularizer": null, "kernel_constraint": null, "bias_constraint": null}, "inbound_nodes": [[["Block17_6_Activation", 0, 0, {}]]]}, {"name": "Block17_7_Branch_1_Conv2d_0c_7x1", "class_name": "Conv2D", "config": {"name": "Block17_7_Branch_1_Conv2d_0c_7x1", "trainable": true, "dtype": "float32", "filters": 128, "kernel_size": [7, 1], "strides": [1, 1], "padding": "same", "data_format": "channels_last", "dilation_rate": [1, 1], "activation": "linear", "use_bias": false, "kernel_initializer": {"class_name": "GlorotUniform", "config": {"seed": null, "dtype": "float32"}}, "bias_initializer": {"class_name": "Zeros", "config": {"dtype": "float32"}}, "kernel_regularizer": null, "bias_regularizer": null, "activity_regularizer": null, "kernel_constraint": null, "bias_constraint": null}, "inbound_nodes": [[["Block17_7_Branch_1_Conv2d_0b_1x7_Activation", 0, 0, {}]]]}, {"name": "Block17_7_Branch_0_Conv2d_1x1_BatchNorm", "class_name": "BatchNormalization", "config": {"name": "Block17_7_Branch_0_Conv2d_1x1_BatchNorm", "trainable": true, "dtype": "float32", "axis": [3], "momentum": 0.995, "epsilon": 0.001, "center": true, "scale": false, "beta_initializer": {"class_name": "Zeros", "config": {"dtype": "float32"}}, "gamma_initializer": {"class_name": "Ones", "config": {"dtype": "float32"}}, "moving_mean_initializer": {"class_name": "Zeros", "config": {"dtype": "float32"}}, "moving_variance_initializer": {"class_name": "Ones", "config": {"dtype": "float32"}}, "beta_regularizer": null, "gamma_regularizer": null, "beta_constraint": null, "gamma_constraint": null}, "inbound_nodes": [[["Block17_7_Branch_0_Conv2d_1x1", 0, 0, {}]]]}, {"name": "Block17_7_Branch_1_Conv2d_0c_7x1_BatchNorm", "class_name": "BatchNormalization", "config": {"name": "Block17_7_Branch_1_Conv2d_0c_7x1_BatchNorm", "trainable": true, "dtype": "float32", "axis": [3], "momentum": 0.995, "epsilon": 0.001, "center": true, "scale": false, "beta_initializer": {"class_name": "Zeros", "config": {"dtype": "float32"}}, "gamma_initializer": {"class_name": "Ones", "config": {"dtype": "float32"}}, "moving_mean_initializer": {"class_name": "Zeros", "config": {"dtype": "float32"}}, "moving_variance_initializer": {"class_name": "Ones", "config": {"dtype": "float32"}}, "beta_regularizer": null, "gamma_regularizer": null, "beta_constraint": null, "gamma_constraint": null}, "inbound_nodes": [[["Block17_7_Branch_1_Conv2d_0c_7x1", 0, 0, {}]]]}, {"name": "Block17_7_Branch_0_Conv2d_1x1_Activation", "class_name": "Activation", "config": {"name": "Block17_7_Branch_0_Conv2d_1x1_Activation", "trainable": true, "dtype": "float32", "activation": "relu"}, "inbound_nodes": [[["Block17_7_Branch_0_Conv2d_1x1_BatchNorm", 0, 0, {}]]]}, {"name": "Block17_7_Branch_1_Conv2d_0c_7x1_Activation", "class_name": "Activation", "config": {"name": "Block17_7_Branch_1_Conv2d_0c_7x1_Activation", "trainable": true, "dtype": "float32", "activation": "relu"}, "inbound_nodes": [[["Block17_7_Branch_1_Conv2d_0c_7x1_BatchNorm", 0, 0, {}]]]}, {"name": "Block17_7_Concatenate", "class_name": "Concatenate", "config": {"name": "Block17_7_Concatenate", "trainable": true, "dtype": "float32", "axis": 3}, "inbound_nodes": [[["Block17_7_Branch_0_Conv2d_1x1_Activation", 0, 0, {}], ["Block17_7_Branch_1_Conv2d_0c_7x1_Activation", 0, 0, {}]]]}, {"name": "Block17_7_Conv2d_1x1", "class_name": "Conv2D", "config": {"name": "Block17_7_Conv2d_1x1", "trainable": true, "dtype": "float32", "filters": 896, "kernel_size": [1, 1], "strides": [1, 1], "padding": "same", "data_format": "channels_last", "dilation_rate": [1, 1], "activation": "linear", "use_bias": true, "kernel_initializer": {"class_name": "GlorotUniform", "config": {"seed": null, "dtype": "float32"}}, "bias_initializer": {"class_name": "Zeros", "config": {"dtype": "float32"}}, "kernel_regularizer": null, "bias_regularizer": null, "activity_regularizer": null, "kernel_constraint": null, "bias_constraint": null}, "inbound_nodes": [[["Block17_7_Concatenate", 0, 0, {}]]]}, {"name": "hyper_scale_11", "class_name": "HyperScale", "config": {"name": "hyper_scale_11", "trainable": true, "dtype": "float32", "value": 0.1}, "inbound_nodes": [[["Block17_7_Conv2d_1x1", 0, 0, {}]]]}, {"name": "add_11", "class_name": "Add", "config": {"name": "add_11", "trainable": true, "dtype": "float32"}, "inbound_nodes": [[["Block17_6_Activation", 0, 0, {}], ["hyper_scale_11", 0, 0, {}]]]}, {"name": "Block17_7_Activation", "class_name": "Activation", "config": {"name": "Block17_7_Activation", "trainable": true, "dtype": "float32", "activation": "relu"}, "inbound_nodes": [[["add_11", 0, 0, {}]]]}, {"name": "Block17_8_Branch_1_Conv2d_0a_1x1", "class_name": "Conv2D", "config": {"name": "Block17_8_Branch_1_Conv2d_0a_1x1", "trainable": true, "dtype": "float32", "filters": 128, "kernel_size": [1, 1], "strides": [1, 1], "padding": "same", "data_format": "channels_last", "dilation_rate": [1, 1], "activation": "linear", "use_bias": false, "kernel_initializer": {"class_name": "GlorotUniform", "config": {"seed": null, "dtype": "float32"}}, "bias_initializer": {"class_name": "Zeros", "config": {"dtype": "float32"}}, "kernel_regularizer": null, "bias_regularizer": null, "activity_regularizer": null, "kernel_constraint": null, "bias_constraint": null}, "inbound_nodes": [[["Block17_7_Activation", 0, 0, {}]]]}, {"name": "Block17_8_Branch_1_Conv2d_0a_1x1_BatchNorm", "class_name": "BatchNormalization", "config": {"name": "Block17_8_Branch_1_Conv2d_0a_1x1_BatchNorm", "trainable": true, "dtype": "float32", "axis": [3], "momentum": 0.995, "epsilon": 0.001, "center": true, "scale": false, "beta_initializer": {"class_name": "Zeros", "config": {"dtype": "float32"}}, "gamma_initializer": {"class_name": "Ones", "config": {"dtype": "float32"}}, "moving_mean_initializer": {"class_name": "Zeros", "config": {"dtype": "float32"}}, "moving_variance_initializer": {"class_name": "Ones", "config": {"dtype": "float32"}}, "beta_regularizer": null, "gamma_regularizer": null, "beta_constraint": null, "gamma_constraint": null}, "inbound_nodes": [[["Block17_8_Branch_1_Conv2d_0a_1x1", 0, 0, {}]]]}, {"name": "Block17_8_Branch_1_Conv2d_0a_1x1_Activation", "class_name": "Activation", "config": {"name": "Block17_8_Branch_1_Conv2d_0a_1x1_Activation", "trainable": true, "dtype": "float32", "activation": "relu"}, "inbound_nodes": [[["Block17_8_Branch_1_Conv2d_0a_1x1_BatchNorm", 0, 0, {}]]]}, {"name": "Block17_8_Branch_1_Conv2d_0b_1x7", "class_name": "Conv2D", "config": {"name": "Block17_8_Branch_1_Conv2d_0b_1x7", "trainable": true, "dtype": "float32", "filters": 128, "kernel_size": [1, 7], "strides": [1, 1], "padding": "same", "data_format": "channels_last", "dilation_rate": [1, 1], "activation": "linear", "use_bias": false, "kernel_initializer": {"class_name": "GlorotUniform", "config": {"seed": null, "dtype": "float32"}}, "bias_initializer": {"class_name": "Zeros", "config": {"dtype": "float32"}}, "kernel_regularizer": null, "bias_regularizer": null, "activity_regularizer": null, "kernel_constraint": null, "bias_constraint": null}, "inbound_nodes": [[["Block17_8_Branch_1_Conv2d_0a_1x1_Activation", 0, 0, {}]]]}, {"name": "Block17_8_Branch_1_Conv2d_0b_1x7_BatchNorm", "class_name": "BatchNormalization", "config": {"name": "Block17_8_Branch_1_Conv2d_0b_1x7_BatchNorm", "trainable": true, "dtype": "float32", "axis": [3], "momentum": 0.995, "epsilon": 0.001, "center": true, "scale": false, "beta_initializer": {"class_name": "Zeros", "config": {"dtype": "float32"}}, "gamma_initializer": {"class_name": "Ones", "config": {"dtype": "float32"}}, "moving_mean_initializer": {"class_name": "Zeros", "config": {"dtype": "float32"}}, "moving_variance_initializer": {"class_name": "Ones", "config": {"dtype": "float32"}}, "beta_regularizer": null, "gamma_regularizer": null, "beta_constraint": null, "gamma_constraint": null}, "inbound_nodes": [[["Block17_8_Branch_1_Conv2d_0b_1x7", 0, 0, {}]]]}, {"name": "Block17_8_Branch_1_Conv2d_0b_1x7_Activation", "class_name": "Activation", "config": {"name": "Block17_8_Branch_1_Conv2d_0b_1x7_Activation", "trainable": true, "dtype": "float32", "activation": "relu"}, "inbound_nodes": [[["Block17_8_Branch_1_Conv2d_0b_1x7_BatchNorm", 0, 0, {}]]]}, {"name": "Block17_8_Branch_0_Conv2d_1x1", "class_name": "Conv2D", "config": {"name": "Block17_8_Branch_0_Conv2d_1x1", "trainable": true, "dtype": "float32", "filters": 128, "kernel_size": [1, 1], "strides": [1, 1], "padding": "same", "data_format": "channels_last", "dilation_rate": [1, 1], "activation": "linear", "use_bias": false, "kernel_initializer": {"class_name": "GlorotUniform", "config": {"seed": null, "dtype": "float32"}}, "bias_initializer": {"class_name": "Zeros", "config": {"dtype": "float32"}}, "kernel_regularizer": null, "bias_regularizer": null, "activity_regularizer": null, "kernel_constraint": null, "bias_constraint": null}, "inbound_nodes": [[["Block17_7_Activation", 0, 0, {}]]]}, {"name": "Block17_8_Branch_1_Conv2d_0c_7x1", "class_name": "Conv2D", "config": {"name": "Block17_8_Branch_1_Conv2d_0c_7x1", "trainable": true, "dtype": "float32", "filters": 128, "kernel_size": [7, 1], "strides": [1, 1], "padding": "same", "data_format": "channels_last", "dilation_rate": [1, 1], "activation": "linear", "use_bias": false, "kernel_initializer": {"class_name": "GlorotUniform", "config": {"seed": null, "dtype": "float32"}}, "bias_initializer": {"class_name": "Zeros", "config": {"dtype": "float32"}}, "kernel_regularizer": null, "bias_regularizer": null, "activity_regularizer": null, "kernel_constraint": null, "bias_constraint": null}, "inbound_nodes": [[["Block17_8_Branch_1_Conv2d_0b_1x7_Activation", 0, 0, {}]]]}, {"name": "Block17_8_Branch_0_Conv2d_1x1_BatchNorm", "class_name": "BatchNormalization", "config": {"name": "Block17_8_Branch_0_Conv2d_1x1_BatchNorm", "trainable": true, "dtype": "float32", "axis": [3], "momentum": 0.995, "epsilon": 0.001, "center": true, "scale": false, "beta_initializer": {"class_name": "Zeros", "config": {"dtype": "float32"}}, "gamma_initializer": {"class_name": "Ones", "config": {"dtype": "float32"}}, "moving_mean_initializer": {"class_name": "Zeros", "config": {"dtype": "float32"}}, "moving_variance_initializer": {"class_name": "Ones", "config": {"dtype": "float32"}}, "beta_regularizer": null, "gamma_regularizer": null, "beta_constraint": null, "gamma_constraint": null}, "inbound_nodes": [[["Block17_8_Branch_0_Conv2d_1x1", 0, 0, {}]]]}, {"name": "Block17_8_Branch_1_Conv2d_0c_7x1_BatchNorm", "class_name": "BatchNormalization", "config": {"name": "Block17_8_Branch_1_Conv2d_0c_7x1_BatchNorm", "trainable": true, "dtype": "float32", "axis": [3], "momentum": 0.995, "epsilon": 0.001, "center": true, "scale": false, "beta_initializer": {"class_name": "Zeros", "config": {"dtype": "float32"}}, "gamma_initializer": {"class_name": "Ones", "config": {"dtype": "float32"}}, "moving_mean_initializer": {"class_name": "Zeros", "config": {"dtype": "float32"}}, "moving_variance_initializer": {"class_name": "Ones", "config": {"dtype": "float32"}}, "beta_regularizer": null, "gamma_regularizer": null, "beta_constraint": null, "gamma_constraint": null}, "inbound_nodes": [[["Block17_8_Branch_1_Conv2d_0c_7x1", 0, 0, {}]]]}, {"name": "Block17_8_Branch_0_Conv2d_1x1_Activation", "class_name": "Activation", "config": {"name": "Block17_8_Branch_0_Conv2d_1x1_Activation", "trainable": true, "dtype": "float32", "activation": "relu"}, "inbound_nodes": [[["Block17_8_Branch_0_Conv2d_1x1_BatchNorm", 0, 0, {}]]]}, {"name": "Block17_8_Branch_1_Conv2d_0c_7x1_Activation", "class_name": "Activation", "config": {"name": "Block17_8_Branch_1_Conv2d_0c_7x1_Activation", "trainable": true, "dtype": "float32", "activation": "relu"}, "inbound_nodes": [[["Block17_8_Branch_1_Conv2d_0c_7x1_BatchNorm", 0, 0, {}]]]}, {"name": "Block17_8_Concatenate", "class_name": "Concatenate", "config": {"name": "Block17_8_Concatenate", "trainable": true, "dtype": "float32", "axis": 3}, "inbound_nodes": [[["Block17_8_Branch_0_Conv2d_1x1_Activation", 0, 0, {}], ["Block17_8_Branch_1_Conv2d_0c_7x1_Activation", 0, 0, {}]]]}, {"name": "Block17_8_Conv2d_1x1", "class_name": "Conv2D", "config": {"name": "Block17_8_Conv2d_1x1", "trainable": true, "dtype": "float32", "filters": 896, "kernel_size": [1, 1], "strides": [1, 1], "padding": "same", "data_format": "channels_last", "dilation_rate": [1, 1], "activation": "linear", "use_bias": true, "kernel_initializer": {"class_name": "GlorotUniform", "config": {"seed": null, "dtype": "float32"}}, "bias_initializer": {"class_name": "Zeros", "config": {"dtype": "float32"}}, "kernel_regularizer": null, "bias_regularizer": null, "activity_regularizer": null, "kernel_constraint": null, "bias_constraint": null}, "inbound_nodes": [[["Block17_8_Concatenate", 0, 0, {}]]]}, {"name": "hyper_scale_12", "class_name": "HyperScale", "config": {"name": "hyper_scale_12", "trainable": true, "dtype": "float32", "value": 0.1}, "inbound_nodes": [[["Block17_8_Conv2d_1x1", 0, 0, {}]]]}, {"name": "add_12", "class_name": "Add", "config": {"name": "add_12", "trainable": true, "dtype": "float32"}, "inbound_nodes": [[["Block17_7_Activation", 0, 0, {}], ["hyper_scale_12", 0, 0, {}]]]}, {"name": "Block17_8_Activation", "class_name": "Activation", "config": {"name": "Block17_8_Activation", "trai…
min": -0.04712840213495142, "scale": 0.0004712840213495142, "dtype": "uint8"}}, {"name": "Block35_3_Branch_0_Conv2d_1x1_BatchNorm/beta", "shape": [32], "dtype": "float32", "quantization": {"min": -0.41370365023612976, "scale": 0.0013976950709726297, "dtype": "uint8"}}, {"name": "Block35_3_Branch_0_Conv2d_1x1_BatchNorm/moving_mean", "shape": [32], "dtype": "float32", "quantization": {"min": -0.023009238655076307, "scale": 0.00023241655207147785, "dtype": "uint8"}}, {"name": "Block35_3_Branch_0_Conv2d_1x1_BatchNorm/moving_variance", "shape": [32], "dtype": "float32", "quantization": {"min": 0.00011513310164446011, "scale": 8.664099332949549e-07, "dtype": "uint8"}}, {"name": "Block35_3_Branch_1_Conv2d_0a_1x1/kernel", "shape": [1, 1, 256, 32], "dtype": "float32", "quantization": {"min": -0.06975883932090274, "scale": 0.0006065986027904586, "dtype": "uint8"}}, {"name": "Block35_3_Branch_1_Conv2d_0a_1x1_BatchNorm/beta", "shape": [32], "dtype": "float32", "quantization": {"min": -1.5208516120910645, "scale": 0.005689764315006779, "dtype": "uint8"}}, {"name": "Block35_3_Branch_1_Conv2d_0a_1x1_BatchNorm/moving_mean", "shape": [32], "dtype": "float32", "quantization": {"min": -0.08564329953754649, "scale": 0.00046545271487797007, "dtype": "uint8"}}, {"name": "Block35_3_Branch_1_Conv2d_0a_1x1_BatchNorm/moving_variance", "shape": [32], "dtype": "float32", "quantization": {"min": 0.00022126910334918648, "scale": 2.253197039952319e-06, "dtype": "uint8"}}, {"name": "Block35_3_Branch_1_Conv2d_0b_3x3/kernel", "shape": [3, 3, 32, 32], "dtype": "float32", "quantization": {"min": -0.06794882776106105, "scale": 0.0005267350989229539, "dtype": "uint8"}}, {"name": "Block35_3_Branch_1_Conv2d_0b_3x3_BatchNorm/beta", "shape": [32], "dtype": "float32", "quantization": {"min": -0.18947119449867922, "scale": 0.004406306848806493, "dtype": "uint8"}}, {"name": "Block35_3_Branch_1_Conv2d_0b_3x3_BatchNorm/moving_mean", "shape": [32], "dtype": "float32", "quantization": {"min": -0.050430994670765075, "scale": 0.0003849694249676723, "dtype": "uint8"}}, {"name": "Block35_3_Branch_1_Conv2d_0b_3x3_BatchNorm/moving_variance", "shape": [32], "dtype": "float32", "quantization": {"min": 0.0012990363175049424, "scale": 5.972713652048625e-06, "dtype": "uint8"}}, {"name": "Block35_3_Branch_2_Conv2d_0a_1x1/kernel", "shape": [1, 1, 256, 32], "dtype": "float32", "quantization": {"min": -0.06456398788620443, "scale": 0.000496646060663111, "dtype": "uint8"}}, {"name": "Block35_3_Branch_2_Conv2d_0a_1x1_BatchNorm/beta", "shape": [32], "dtype": "float32", "quantization": {"min": -0.8297836584203383, "scale": 0.005285246231976677, "dtype": "uint8"}}, {"name": "Block35_3_Branch_2_Conv2d_0a_1x1_BatchNorm/moving_mean", "shape": [32], "dtype": "float32", "quantization": {"min": -0.08303909027108959, "scale": 0.0005573093306784537, "dtype": "uint8"}}, {"name": "Block35_3_Branch_2_Conv2d_0a_1x1_BatchNorm/moving_variance", "shape": [32], "dtype": "float32", "quantization": {"min": 0.0002573379024397582, "scale": 2.534644719322815e-06, "dtype": "uint8"}}, {"name": "Block35_3_Branch_2_Conv2d_0b_3x3/kernel", "shape": [3, 3, 32, 32], "dtype": "float32", "quantization": {"min": -0.06009765232310576, "scale": 0.0005225882810704849, "dtype": "uint8"}}, {"name": "Block35_3_Branch_2_Conv2d_0b_3x3_BatchNorm/beta", "shape": [32], "dtype": "float32", "quantization": {"min": -1.8563555479049683, "scale": 0.006101503559187347, "dtype": "uint8"}}, {"name": "Block35_3_Branch_2_Conv2d_0b_3x3_BatchNorm/moving_mean", "shape": [32], "dtype": "float32", "quantization": {"min": -0.30660047447856736, "scale": 0.0013046828701215633, "dtype": "uint8"}}, {"name": "Block35_3_Branch_2_Conv2d_0b_3x3_BatchNorm/moving_variance", "shape": [32], "dtype": "float32", "quantization": {"min": 0.005504919681698084, "scale": 4.849986666265656e-05, "dtype": "uint8"}}, {"name": "Block35_3_Branch_2_Conv2d_0c_3x3/kernel", "shape": [3, 3, 32, 32], "dtype": "float32", "quantization": {"min": -0.03895498382694581, "scale": 0.00041887079383812697, "dtype": "uint8"}}, {"name": "Block35_3_Branch_2_Conv2d_0c_3x3_BatchNorm/beta", "shape": [32], "dtype": "float32", "quantization": {"min": 0.10260114818811417, "scale": 0.0037445115984654893, "dtype": "uint8"}}, {"name": "Block35_3_Branch_2_Conv2d_0c_3x3_BatchNorm/moving_mean", "shape": [32], "dtype": "float32", "quantization": {"min": -0.04098581272889586, "scale": 0.0003692415561161789, "dtype": "uint8"}}, {"name": "Block35_3_Branch_2_Conv2d_0c_3x3_BatchNorm/moving_variance", "shape": [32], "dtype": "float32", "quantization": {"min": 0.006108851637691259, "scale": 2.1531441997663646e-05, "dtype": "uint8"}}, {"name": "Block35_3_Conv2d_1x1/kernel", "shape": [1, 1, 96, 256], "dtype": "float32", "quantization": {"min": -0.09698932988970888, "scale": 0.0006423134429782045, "dtype": "uint8"}}, {"name": "Block35_3_Conv2d_1x1/bias", "shape": [256], "dtype": "float32", "quantization": {"min": -0.41864715019861853, "scale": 0.0035478572050730386, "dtype": "uint8"}}, {"name": "Block35_4_Branch_0_Conv2d_1x1/kernel", "shape": [1, 1, 256, 32], "dtype": "float32", "quantization": {"min": -0.03813577574842116, "scale": 0.00036319786427067776, "dtype": "uint8"}}, {"name": "Block35_4_Branch_0_Conv2d_1x1_BatchNorm/beta", "shape": [32], "dtype": "float32", "quantization": {"min": -0.5321634208454805, "scale": 0.004223519213059369, "dtype": "uint8"}}, {"name": "Block35_4_Branch_0_Conv2d_1x1_BatchNorm/moving_mean", "shape": [32], "dtype": "float32", "quantization": {"min": -0.09789352206622852, "scale": 0.000932319257773605, "dtype": "uint8"}}, {"name": "Block35_4_Branch_0_Conv2d_1x1_BatchNorm/moving_variance", "shape": [32], "dtype": "float32", "quantization": {"min": 0.00010249760816805065, "scale": 9.772561800976595e-07, "dtype": "uint8"}}, {"name": "Block35_4_Branch_1_Conv2d_0a_1x1/kernel", "shape": [1, 1, 256, 32], "dtype": "float32", "quantization": {"min": -0.0715818533710405, "scale": 0.000715818533710405, "dtype": "uint8"}}, {"name": "Block35_4_Branch_1_Conv2d_0a_1x1_BatchNorm/beta", "shape": [32], "dtype": "float32", "quantization": {"min": -1.2634159326553345, "scale": 0.0034436287833195106, "dtype": "uint8"}}, {"name": "Block35_4_Branch_1_Conv2d_0a_1x1_BatchNorm/moving_mean", "shape": [32], "dtype": "float32", "quantization": {"min": -0.07973132530848184, "scale": 0.0004380842049916585, "dtype": "uint8"}}, {"name": "Block35_4_Branch_1_Conv2d_0a_1x1_BatchNorm/moving_variance", "shape": [32], "dtype": "float32", "quantization": {"min": 0.00024321695673279464, "scale": 3.2855194363304796e-06, "dtype": "uint8"}}, {"name": "Block35_4_Branch_1_Conv2d_0b_3x3/kernel", "shape": [3, 3, 32, 32], "dtype": "float32", "quantization": {"min": -0.06895724333384458, "scale": 0.0005606279945841022, "dtype": "uint8"}}, {"name": "Block35_4_Branch_1_Conv2d_0b_3x3_BatchNorm/beta", "shape": [32], "dtype": "float32", "quantization": {"min": -0.1331221827689339, "scale": 0.003413389301767536, "dtype": "uint8"}}, {"name": "Block35_4_Branch_1_Conv2d_0b_3x3_BatchNorm/moving_mean", "shape": [32], "dtype": "float32", "quantization": {"min": -0.04872953874223372, "scale": 0.0005801135564551634, "dtype": "uint8"}}, {"name": "Block35_4_Branch_1_Conv2d_0b_3x3_BatchNorm/moving_variance", "shape": [32], "dtype": "float32", "quantization": {"min": 0.0009411161299794912, "scale": 1.1254055425524712e-05, "dtype": "uint8"}}, {"name": "Block35_4_Branch_2_Conv2d_0a_1x1/kernel", "shape": [1, 1, 256, 32], "dtype": "float32", "quantization": {"min": -0.09060958261583366, "scale": 0.0006969967893525666, "dtype": "uint8"}}, {"name": "Block35_4_Branch_2_Conv2d_0a_1x1_BatchNorm/beta", "shape": [32], "dtype": "float32", "quantization": {"min": -1.2033874722088085, "scale": 0.007120635930229636, "dtype": "uint8"}}, {"name": "Block35_4_Branch_2_Conv2d_0a_1x1_BatchNorm/moving_mean", "shape": [32], "dtype": "float32", "quantization": {"min": -0.0965601533651352, "scale": 0.0006800010800361633, "dtype": "uint8"}}, {"name": "Block35_4_Branch_2_Conv2d_0a_1x1_BatchNorm/moving_variance", "shape": [32], "dtype": "float32", "quantization": {"min": 0.0002416972565697506, "scale": 3.529700859194147e-06, "dtype": "uint8"}}, {"name": "Block35_4_Branch_2_Conv2d_0b_3x3/kernel", "shape": [3, 3, 32, 32], "dtype": "float32", "quantization": {"min": -0.05603768252858928, "scale": 0.0005388238704672046, "dtype": "uint8"}}, {"name": "Block35_4_Branch_2_Conv2d_0b_3x3_BatchNorm/beta", "shape": [32], "dtype": "float32", "quantization": {"min": -2.337282419204712, "scale": 0.0065084445710275685, "dtype": "uint8"}}, {"name": "Block35_4_Branch_2_Conv2d_0b_3x3_BatchNorm/moving_mean", "shape": [32], "dtype": "float32", "quantization": {"min": -0.2161231882431928, "scale": 0.0012006843791288488, "dtype": "uint8"}}, {"name": "Block35_4_Branch_2_Conv2d_0b_3x3_BatchNorm/moving_variance", "shape": [32], "dtype": "float32", "quantization": {"min": 0.0020457685459405184, "scale": 4.0379589350492346e-05, "dtype": "uint8"}}, {"name": "Block35_4_Branch_2_Conv2d_0c_3x3/kernel", "shape": [3, 3, 32, 32], "dtype": "float32", "quantization": {"min": -0.047121402007692, "scale": 0.0004323064404375413, "dtype": "uint8"}}, {"name": "Block35_4_Branch_2_Conv2d_0c_3x3_BatchNorm/beta", "shape": [32], "dtype": "float32", "quantization": {"min": 0.15458711981773376, "scale": 0.004171207021264469, "dtype": "uint8"}}, {"name": "Block35_4_Branch_2_Conv2d_0c_3x3_BatchNorm/moving_mean", "shape": [32], "dtype": "float32", "quantization": {"min": -0.0649049449712038, "scale": 0.0003666946043570836, "dtype": "uint8"}}, {"name": "Block35_4_Branch_2_Conv2d_0c_3x3_BatchNorm/moving_variance", "shape": [32], "dtype": "float32", "quantization": {"min": 0.008289579302072525, "scale": 4.640486018330443e-05, "dtype": "uint8"}}, {"name": "Block35_4_Conv2d_1x1/kernel", "shape": [1, 1, 96, 256], "dtype": "float32", "quantization": {"min": -0.10518871396780013, "scale": 0.0006875079344300663, "dtype": "uint8"}}, {"name": "Block35_4_Conv2d_1x1/bias", "shape": [256], "dtype": "float32", "quantization": {"min": -0.5781431972980499, "scale": 0.003932946920394897, "dtype": "uint8"}}, {"name": "Block35_5_Branch_0_Conv2d_1x1/kernel", "shape": [1, 1, 256, 32], "dtype": "float32", "quantization": {"min": -0.046997211566742726, "scale": 0.00047471930875497706, "dtype": "uint8"}}, {"name": "Block35_5_Branch_0_Conv2d_1x1_BatchNorm/beta", "shape": [32], "dtype": "float32", "quantization": {"min": -0.5518205801645915, "scale": 0.004057504265916114, "dtype": "uint8"}}, {"name": "Block35_5_Branch_0_Conv2d_1x1_BatchNorm/moving_mean", "shape": [32], "dtype": "float32", "quantization": {"min": -0.0388670856023536, "scale": 0.000826959268135183, "dtype": "uint8"}}, {"name": "Block35_5_Branch_0_Conv2d_1x1_BatchNorm/moving_variance", "shape": [32], "dtype": "float32", "quantization": {"min": 0.00011778625776059926, "scale": 1.1530873712663557e-06, "dtype": "uint8"}}, {"name": "Block35_5_Branch_1_Conv2d_0a_1x1/kernel", "shape": [1, 1, 256, 32], "dtype": "float32", "quantization": {"min": -0.06788039555152257, "scale": 0.0005704234920296014, "dtype": "uint8"}}, {"name": "Block35_5_Branch_1_Conv2d_0a_1x1_BatchNorm/beta", "shape": [32], "dtype": "float32", "quantization": {"min": -1.3069028854370117, "scale": 0.0033304483282799815, "dtype": "uint8"}}, {"name": "Block35_5_Branch_1_Conv2d_0a_1x1_BatchNorm/moving_mean", "shape": [32], "dtype": "float32", "quantization": {"min": -0.07795002390356624, "scale": 0.0004124339889077579, "dtype": "uint8"}}, {"name": "Block35_5_Branch_1_Conv2d_0a_1x1_BatchNorm/moving_variance", "shape": [32], "dtype": "float32", "quantization": {"min": 0.00028342989389784634, "scale": 2.1457328579808567e-06, "dtype": "uint8"}}, {"name": "Block35_5_Branch_1_Conv2d_0b_3x3/kernel", "shape": [3, 3, 32, 32], "dtype": "float32", "quantization": {"min": -0.058839296374250866, "scale": 0.0005603742511833416, "dtype": "uint8"}}, {"name": "Block35_5_Branch_1_Conv2d_0b_3x3_BatchNorm/beta", "shape": [32], "dtype": "float32", "quantization": {"min": -0.03163823318832061, "scale": 0.002636519432360051, "dtype": "uint8"}}, {"name": "Block35_5_Branch_1_Conv2d_0b_3x3_BatchNorm/moving_mean", "shape": [32], "dtype": "float32", "quantization": {"min": -0.014315819568639877, "scale": 0.00017247975383903467, "dtype": "uint8"}}, {"name": "Block35_5_Branch_1_Conv2d_0b_3x3_BatchNorm/moving_variance", "shape": [32], "dtype": "float32", "quantization": {"min": 0.0007399714086204767, "scale": 4.996722746713489e-06, "dtype": "uint8"}}, {"name": "Block35_5_Branch_2_Conv2d_0a_1x1/kernel", "shape": [1, 1, 256, 32], "dtype": "float32", "quantization": {"min": -0.09053101995412041, "scale": 0.0008382501847603742, "dtype": "uint8"}}, {"name": "Block35_5_Branch_2_Conv2d_0a_1x1_BatchNorm/beta", "shape": [32], "dtype": "float32", "quantization": {"min": -1.3992222358198727, "scale": 0.008800139847923728, "dtype": "uint8"}}, {"name": "Block35_5_Branch_2_Conv2d_0a_1x1_BatchNorm/moving_mean", "shape": [32], "dtype": "float32", "quantization": {"min": -0.06650282969953968, "scale": 0.0005000212759363886, "dtype": "uint8"}}, {"name": "Block35_5_Branch_2_Conv2d_0a_1x1_BatchNorm/moving_variance", "shape": [32], "dtype": "float32", "quantization": {"min": 0.0003998746396973729, "scale": 6.940263761755298e-06, "dtype": "uint8"}}, {"name": "Block35_5_Branch_2_Conv2d_0b_3x3/kernel", "shape": [3, 3, 32, 32], "dtype": "float32", "quantization": {"min": -0.06726054438188964, "scale": 0.0005513159375564725, "dtype": "uint8"}}, {"name": "Block35_5_Branch_2_Conv2d_0b_3x3_BatchNorm/beta", "shape": [32], "dtype": "float32", "quantization": {"min": -1.526093689483755, "scale": 0.007592505917829626, "dtype": "uint8"}}, {"name": "Block35_5_Branch_2_Conv2d_0b_3x3_BatchNorm/moving_mean", "shape": [32], "dtype": "float32", "quantization": {"min": -0.3143457563484416, "scale": 0.0017271744854309979, "dtype": "uint8"}}, {"name": "Block35_5_Branch_2_Conv2d_0b_3x3_BatchNorm/moving_variance", "shape": [32], "dtype": "float32", "quantization": {"min": 0.0009374086512252688, "scale": 0.00015907260251468887, "dtype": "uint8"}}, {"name": "Block35_5_Branch_2_Conv2d_0c_3x3/kernel", "shape": [3, 3, 32, 32], "dtype": "float32", "quantization": {"min": -0.06469261786516975, "scale": 0.0005134334751203948, "dtype": "uint8"}}, {"name": "Block35_5_Branch_2_Conv2d_0c_3x3_BatchNorm/beta", "shape": [32], "dtype": "float32", "quantization": {"min": 0.32696518301963806, "scale": 0.003867117680755316, "dtype": "uint8"}}, {"name": "Block35_5_Branch_2_Conv2d_0c_3x3_BatchNorm/moving_mean", "shape": [32], "dtype": "float32", "quantization": {"min": -0.18959237553325353, "scale": 0.0016778086330376419, "dtype": "uint8"}}, {"name": "Block35_5_Branch_2_Conv2d_0c_3x3_BatchNorm/moving_variance", "shape": [32], "dtype": "float32", "quantization": {"min": 0.009792703203856945, "scale": 6.949191949531144e-05, "dtype": "uint8"}}, {"name": "Block35_5_Conv2d_1x1/kernel", "shape": [1, 1, 96, 256], "dtype": "float32", "quantization": {"min": -0.07718674049657934, "scale": 0.000728176797137541, "dtype": "uint8"}}, {"name": "Block35_5_Conv2d_1x1/bias", "shape": [256], "dtype": "float32", "quantization": {"min": -0.6847606007959328, "scale": 0.004595708730174046, "dtype": "uint8"}}, {"name": "Block8_1_Branch_0_Conv2d_1x1/kernel", "shape": [1, 1, 1792, 192], "dtype": "float32", "quantization": {"min": -0.03033884664376577, "scale": 0.0002549482911240821, "dtype": "uint8"}}, {"name": "Block8_1_Branch_0_Conv2d_1x1_BatchNorm/beta", "shape": [192], "dtype": "float32", "quantization": {"min": -0.2534111334997065, "scale": 0.0012124934617210837, "dtype": "uint8"}}, {"name": "Block8_1_Branch_0_Conv2d_1x1_BatchNorm/moving_mean", "shape": [192], "dtype": "float32", "quantization": {"min": -0.026516581794210507, "scale": 0.00021734903110008614, "dtype": "uint8"}}, {"name": "Block8_1_Branch_0_Conv2d_1x1_BatchNorm/moving_variance", "shape": [192], "dtype": "float32", "quantization": {"min": 0.00014552033098880202, "scale": 2.1493824212537967e-06, "dtype": "uint8"}}, {"name": "Block8_1_Branch_1_Conv2d_0a_1x1/kernel", "shape": [1, 1, 1792, 192], "dtype": "float32", "quantization": {"min": -0.022178704415758452, "scale": 0.00018637566735931472, "dtype": "uint8"}}, {"name": "Block8_1_Branch_1_Conv2d_0a_1x1_BatchNorm/beta", "shape": [192], "dtype": "float32", "quantization": {"min": -0.36768588423728943, "scale": 0.001247583256632674, "dtype": "uint8"}}, {"name": "Block8_1_Branch_1_Conv2d_0a_1x1_BatchNorm/moving_mean", "shape": [192], "dtype": "float32", "quantization": {"min": -0.046719725079396195, "scale": 0.0004247247734490563, "dtype": "uint8"}}, {"name": "Block8_1_Branch_1_Conv2d_0a_1x1_BatchNorm/moving_variance", "shape": [192], "dtype": "float32", "quantization": {"min": 0.00018261454533785582, "scale": 3.277351075381625e-06, "dtype": "uint8"}}, {"name": "Block8_1_Branch_1_Conv2d_0b_1x3/kernel", "shape": [1, 3, 192, 192], "dtype": "float32", "quantization": {"min": -0.020811422059641163, "scale": 0.00017787540221915525, "dtype": "uint8"}}, {"name": "Block8_1_Branch_1_Conv2d_0b_1x3_BatchNorm/beta", "shape": [192], "dtype": "float32", "quantization": {"min": -0.386165398795742, "scale": 0.0015203362157312679, "dtype": "uint8"}}, {"name": "Block8_1_Branch_1_Conv2d_0b_1x3_BatchNorm/moving_mean", "shape": [192], "dtype": "float32", "quantization": {"min": -0.0764392887844759, "scale": 0.0007421290173250086, "dtype": "uint8"}}, {"name": "Block8_1_Branch_1_Conv2d_0b_1x3_BatchNorm/moving_variance", "shape": [192], "dtype": "float32", "quantization": {"min": 0.0010601384565234184, "scale": 1.774519207138641e-05, "dtype": "uint8"}}, {"name": "Block8_1_Branch_1_Conv2d_0c_3x1/kernel", "shape": [3, 1, 192, 192], "dtype": "float32", "quantization": {"min": -0.018254873331855326, "scale": 0.00019015493054015963, "dtype": "uint8"}}, {"name": "Block8_1_Branch_1_Conv2d_0c_3x1_BatchNorm/beta", "shape": [192], "dtype": "float32", "quantization": {"min": -0.4967246373494466, "scale": 0.003652387039334166, "dtype": "uint8"}}, {"name": "Block8_1_Branch_1_Conv2d_0c_3x1_BatchNorm/moving_mean", "shape": [192], "dtype": "float32", "quantization": {"min": -0.05826729885211178, "scale": 0.0007375607449634403, "dtype": "uint8"}}, {"name": "Block8_1_Branch_1_Conv2d_0c_3x1_BatchNorm/moving_variance", "shape": [192], "dtype": "float32", "quantization": {"min": 0.0028190084267407656, "scale": 9.575092653725662e-06, "dtype": "uint8"}}, {"name": "Block8_1_Conv2d_1x1/kernel", "shape": [1, 1, 384, 1792], "dtype": "float32", "quantization": {"min": -0.05671340887453042, "scale": 0.0003806269051981907, "dtype": "uint8"}}, {"name": "Block8_1_Conv2d_1x1/bias", "shape": [1792], "dtype": "float32", "quantization": {"min": -0.39069336959544354, "scale": 0.001817178463234621, "dtype": "uint8"}}, {"name": "Block8_2_Branch_0_Conv2d_1x1/kernel", "shape": [1, 1, 1792, 192], "dtype": "float32", "quantization": {"min": -0.02433679734228873, "scale": 0.00018577707894876892, "dtype": "uint8"}}, {"name": "Block8_2_Branch_0_Conv2d_1x1_BatchNorm/beta", "shape": [192], "dtype": "float32", "quantization": {"min": -0.2407385922530118, "scale": 0.0011977044390697105, "dtype": "uint8"}}, {"name": "Block8_2_Branch_0_Conv2d_1x1_BatchNorm/moving_mean", "shape": [192], "dtype": "float32", "quantization": {"min": -0.03393493583973717, "scale": 0.00026932488761696163, "dtype": "uint8"}}, {"name": "Block8_2_Branch_0_Conv2d_1x1_BatchNorm/moving_variance", "shape": [192], "dtype": "float32", "quantization": {"min": 0.0001124939153669402, "scale": 1.2135836775140726e-06, "dtype": "uint8"}}, {"name": "Block8_2_Branch_1_Conv2d_0a_1x1/kernel", "shape": [1, 1, 1792, 192], "dtype": "float32", "quantization": {"min": -0.02042590092648478, "scale": 0.00016340720741187824, "dtype": "uint8"}}, {"name": "Block8_2_Branch_1_Conv2d_0a_1x1_BatchNorm/beta", "shape": [192], "dtype": "float32", "quantization": {"min": -0.3376578688621521, "scale": 0.0013219324383409877, "dtype": "uint8"}}, {"name": "Block8_2_Branch_1_Conv2d_0a_1x1_BatchNorm/moving_mean", "shape": [192], "dtype": "float32", "quantization": {"min": -0.052994141157935645, "scale": 0.00040147076634799734, "dtype": "uint8"}}, {"name": "Block8_2_Branch_1_Conv2d_0a_1x1_BatchNorm/moving_variance", "shape": [192], "dtype": "float32", "quantization": {"min": 0.00013793265679851174, "scale": 2.116866309341847e-06, "dtype": "uint8"}}, {"name": "Block8_2_Branch_1_Conv2d_0b_1x3/kernel", "shape": [1, 3, 192, 192], "dtype": "float32", "quantization": {"min": -0.020654922373154583, "scale": 0.00016136658104027018, "dtype": "uint8"}}, {"name": "Block8_2_Branch_1_Conv2d_0b_1x3_BatchNorm/beta", "shape": [192], "dtype": "float32", "quantization": {"min": -0.28712761402130127, "scale": 0.0011129809470445502, "dtype": "uint8"}}, {"name": "Block8_2_Branch_1_Conv2d_0b_1x3_BatchNorm/moving_mean", "shape": [192], "dtype": "float32", "quantization": {"min": -0.1198567938278703, "scale": 0.0009291224327741884, "dtype": "uint8"}}, {"name": "Block8_2_Branch_1_Conv2d_0b_1x3_BatchNorm/moving_variance", "shape": [192], "dtype": "float32", "quantization": {"min": 0.0007344433106482029, "scale": 8.894805339913743e-06, "dtype": "uint8"}}, {"name": "Block8_2_Branch_1_Conv2d_0c_3x1/kernel", "shape": [3, 1, 192, 192], "dtype": "float32", "quantization": {"min": -0.016961168285970593, "scale": 0.00015560704849514306, "dtype": "uint8"}}, {"name": "Block8_2_Branch_1_Conv2d_0c_3x1_BatchNorm/beta", "shape": [192], "dtype": "float32", "quantization": {"min": -0.2746125576542873, "scale": 0.002451897836198994, "dtype": "uint8"}}, {"name": "Block8_2_Branch_1_Conv2d_0c_3x1_BatchNorm/moving_mean", "shape": [192], "dtype": "float32", "quantization": {"min": -0.07125189482581382, "scale": 0.0007829878552287233, "dtype": "uint8"}}, {"name": "Block8_2_Branch_1_Conv2d_0c_3x1_BatchNorm/moving_variance", "shape": [192], "dtype": "float32", "quantization": {"min": 0.002269236370921135, "scale": 1.0488454398571276e-05, "dtype": "uint8"}}, {"name": "Block8_2_Conv2d_1x1/kernel", "shape": [1, 1, 384, 1792], "dtype": "float32", "quantization": {"min": -0.04311561005956986, "scale": 0.00029132168959168826, "dtype": "uint8"}}, {"name": "Block8_2_Conv2d_1x1/bias", "shape": [1792], "dtype": "float32", "quantization": {"min": -0.3858200187192244, "scale": 0.001761735245293262, "dtype": "uint8"}}, {"name": "Block8_3_Branch_0_Conv2d_1x1/kernel", "shape": [1, 1, 1792, 192], "dtype": "float32", "quantization": {"min": -0.024888791757471423, "scale": 0.0002304517755321428, "dtype": "uint8"}}, {"name": "Block8_3_Branch_0_Conv2d_1x1_BatchNorm/beta", "shape": [192], "dtype": "float32", "quantization": {"min": -0.2537062729690589, "scale": 0.001274905894316879, "dtype": "uint8"}}, {"name": "Block8_3_Branch_0_Conv2d_1x1_BatchNorm/moving_mean", "shape": [192], "dtype": "float32", "quantization": {"min": -0.023188150827498998, "scale": 0.00018852155144308128, "dtype": "uint8"}}, {"name": "Block8_3_Branch_0_Conv2d_1x1_BatchNorm/moving_variance", "shape": [192], "dtype": "float32", "quantization": {"min": 6.362937710946426e-05, "scale": 9.166709359680467e-07, "dtype": "uint8"}}, {"name": "Block8_3_Branch_1_Conv2d_0a_1x1/kernel", "shape": [1, 1, 1792, 192], "dtype": "float32", "quantization": {"min": -0.026711096687644136, "scale": 0.00021541207006164627, "dtype": "uint8"}}, {"name": "Block8_3_Branch_1_Conv2d_0a_1x1_BatchNorm/beta", "shape": [192], "dtype": "float32", "quantization": {"min": -0.5426840019686257, "scale": 0.002136551188852857, "dtype": "uint8"}}, {"name": "Block8_3_Branch_1_Conv2d_0a_1x1_BatchNorm/moving_mean", "shape": [192], "dtype": "float32", "quantization": {"min": -0.03136994791965859, "scale": 0.000285181344724169, "dtype": "uint8"}}, {"name": "Block8_3_Branch_1_Conv2d_0a_1x1_BatchNorm/moving_variance", "shape": [192], "dtype": "float32", "quantization": {"min": 0.00028950985870324075, "scale": 1.922380019381058e-06, "dtype": "uint8"}}, {"name": "Block8_3_Branch_1_Conv2d_0b_1x3/kernel", "shape": [1, 3, 192, 192], "dtype": "float32", "quantization": {"min": -0.023132974040858886, "scale": 0.00019604215288863462, "dtype": "uint8"}}, {"name": "Block8_3_Branch_1_Conv2d_0b_1x3_BatchNorm/beta", "shape": [192], "dtype": "float32", "quantization": {"min": -0.5576683282852173, "scale": 0.0020437791797460296, "dtype": "uint8"}}, {"name": "Block8_3_Branch_1_Conv2d_0b_1x3_BatchNorm/moving_mean", "shape": [192], "dtype": "float32", "quantization": {"min": -0.05312181614777621, "scale": 0.0005968743387390586, "dtype": "uint8"}}, {"name": "Block8_3_Branch_1_Conv2d_0b_1x3_BatchNorm/moving_variance", "shape": [192], "dtype": "float32", "quantization": {"min": 0.0012979434104636312, "scale": 1.239111309177151e-05, "dtype": "uint8"}}, {"name": "Block8_3_Branch_1_Conv2d_0c_3x1/kernel", "shape": [3, 1, 192, 192], "dtype": "float32", "quantization": {"min": -0.021795047206037185, "scale": 0.00020956776159651138, "dtype": "uint8"}}, {"name": "Block8_3_Branch_1_Conv2d_0c_3x1_BatchNorm/beta", "shape": [192], "dtype": "float32", "quantization": {"min": -0.46544277551127416, "scale": 0.0032099501759398218, "dtype": "uint8"}}, {"name": "Block8_3_Branch_1_Conv2d_0c_3x1_BatchNorm/moving_mean", "shape": [192], "dtype": "float32", "quantization": {"min": -0.05885117119726013, "scale": 0.0007265576691019769, "dtype": "uint8"}}, {"name": "Block8_3_Branch_1_Conv2d_0c_3x1_BatchNorm/moving_variance", "shape": [192], "dtype": "float32", "quantization": {"min": 0.0030994508415460587, "scale": 1.785542779401237e-05, "dtype": "uint8"}}, {"name": "Block8_3_Conv2d_1x1/kernel", "shape": [1, 1, 384, 1792], "dtype": "float32", "quantization": {"min": -0.050318115189963694, "scale": 0.00038706242453818225, "dtype": "uint8"}}, {"name": "Block8_3_Conv2d_1x1/bias", "shape": [1792], "dtype": "float32", "quantization": {"min": -0.3873657371483597, "scale": 0.0017293113265551773, "dtype": "uint8"}}, {"name": "Block8_4_Branch_0_Conv2d_1x1/kernel", "shape": [1, 1, 1792, 192], "dtype": "float32", "quantization": {"min": -0.016525040493876327, "scale": 0.00016862286218241148, "dtype": "uint8"}}, {"name": "Block8_4_Branch_0_Conv2d_1x1_BatchNorm/beta", "shape": [192], "dtype": "float32", "quantization": {"min": -0.24229759985909743, "scale": 0.0012819978828523674, "dtype": "uint8"}}, {"name": "Block8_4_Branch_0_Conv2d_1x1_BatchNorm/moving_mean", "shape": [192], "dtype": "float32", "quantization": {"min": -0.027903094055021508, "scale": 0.00018981696636069054, "dtype": "uint8"}}, {"name": "Block8_4_Branch_0_Conv2d_1x1_BatchNorm/moving_variance", "shape": [192], "dtype": "float32", "quantization": {"min": 6.0140457208035514e-05, "scale": 8.772918983024782e-07, "dtype": "uint8"}}, {"name": "Block8_4_Branch_1_Conv2d_0a_1x1/kernel", "shape": [1, 1, 1792, 192], "dtype": "float32", "quantization": {"min": -0.03659542305212395, "scale": 0.000389313011192808, "dtype": "uint8"}}, {"name": "Block8_4_Branch_1_Conv2d_0a_1x1_BatchNorm/beta", "shape": [192], "dtype": "float32", "quantization": {"min": -0.521519660949707, "scale": 0.0017706785424082888, "dtype": "uint8"}}, {"name": "Block8_4_Branch_1_Conv2d_0a_1x1_BatchNorm/moving_mean", "shape": [192], "dtype": "float32", "quantization": {"min": -0.0374418924398282, "scale": 0.00029024722821572246, "dtype": "uint8"}}, {"name": "Block8_4_Branch_1_Conv2d_0a_1x1_BatchNorm/moving_variance", "shape": [192], "dtype": "float32", "quantization": {"min": 0.00024848163593560457, "scale": 3.888796302763855e-06, "dtype": "uint8"}}, {"name": "Block8_4_Branch_1_Conv2d_0b_1x3/kernel", "shape": [1, 3, 192, 192], "dtype": "float32", "quantization": {"min": -0.03150957980576683, "scale": 0.0002561754455753401, "dtype": "uint8"}}, {"name": "Block8_4_Branch_1_Conv2d_0b_1x3_BatchNorm/beta", "shape": [192], "dtype": "float32", "quantization": {"min": -0.5407626303241534, "scale": 0.0022816988621272294, "dtype": "uint8"}}, {"name": "Block8_4_Branch_1_Conv2d_0b_1x3_BatchNorm/moving_mean", "shape": [192], "dtype": "float32", "quantization": {"min": -0.06553896268208823, "scale": 0.00048190413736829573, "dtype": "uint8"}}, {"name": "Block8_4_Branch_1_Conv2d_0b_1x3_BatchNorm/moving_variance", "shape": [192], "dtype": "float32", "quantization": {"min": 0.0010260861599817872, "scale": 1.562301608204257e-05, "dtype": "uint8"}}, {"name": "Block8_4_Branch_1_Conv2d_0c_3x1/kernel", "shape": [3, 1, 192, 192], "dtype": "float32", "quantization": {"min": -0.023771659854580372, "scale": 0.00022639676051981308, "dtype": "uint8"}}, {"name": "Block8_4_Branch_1_Conv2d_0c_3x1_BatchNorm/beta", "shape": [192], "dtype": "float32", "quantization": {"min": -0.16843663161876155, "scale": 0.003661665904755686, "dtype": "uint8"}}, {"name": "Block8_4_Branch_1_Conv2d_0c_3x1_BatchNorm/moving_mean", "shape": [192], "dtype": "float32", "quantization": {"min": -0.12749339552486644, "scale": 0.0010624449627072204, "dtype": "uint8"}}, {"name": "Block8_4_Branch_1_Conv2d_0c_3x1_BatchNorm/moving_variance", "shape": [192], "dtype": "float32", "quantization": {"min": 0.0025369971990585327, "scale": 1.4918082046742533e-05, "dtype": "uint8"}}, {"name": "Block8_4_Conv2d_1x1/kernel", "shape": [1, 1, 384, 1792], "dtype": "float32", "quantization": {"min": -0.07240018739419825, "scale": 0.00046410376534742465, "dtype": "uint8"}}, {"name": "Block8_4_Conv2d_1x1/bias", "shape": [1792], "dtype": "float32", "quantization": {"min": -0.3697681146509507, "scale": 0.0019258755971403683, "dtype": "uint8"}}, {"name": "Block8_5_Branch_0_Conv2d_1x1/kernel", "shape": [1, 1, 1792, 192], "dtype": "float32", "quantization": {"min": -0.04544432823564492, "scale": 0.0003317104250777001, "dtype": "uint8"}}, {"name": "Block8_5_Branch_0_Conv2d_1x1_BatchNorm/beta", "shape": [192], "dtype": "float32", "quantization": {"min": -0.28201534683797874, "scale": 0.0014171625469245163, "dtype": "uint8"}}, {"name": "Block8_5_Branch_0_Conv2d_1x1_BatchNorm/moving_mean", "shape": [192], "dtype": "float32", "quantization": {"min": -0.02737981744987123, "scale": 0.00020586328909677617, "dtype": "uint8"}}, {"name": "Block8_5_Branch_0_Conv2d_1x1_BatchNorm/moving_variance", "shape": [192], "dtype": "float32", "quantization": {"min": 6.073963231756352e-05, "scale": 7.87537796628278e-07, "dtype": "uint8"}}, {"name": "Block8_5_Branch_1_Conv2d_0a_1x1/kernel", "shape": [1, 1, 1792, 192], "dtype": "float32", "quantization": {"min": -0.04030479744953268, "scale": 0.00038023393820313845, "dtype": "uint8"}}, {"name": "Block8_5_Branch_1_Conv2d_0a_1x1_BatchNorm/beta", "shape": [192], "dtype": "float32", "quantization": {"min": -0.47285627042326855, "scale": 0.0018990211663585082, "dtype": "uint8"}}, {"name": "Block8_5_Branch_1_Conv2d_0a_1x1_BatchNorm/moving_mean", "shape": [192], "dtype": "float32", "quantization": {"min": -0.12087188608506147, "scale": 0.0007194755124110802, "dtype": "uint8"}}, {"name": "Block8_5_Branch_1_Conv2d_0a_1x1_BatchNorm/moving_variance", "shape": [192], "dtype": "float32", "quantization": {"min": 0.00022942587384022772, "scale": 5.903748188204333e-06, "dtype": "uint8"}}, {"name": "Block8_5_Branch_1_Conv2d_0b_1x3/kernel", "shape": [1, 3, 192, 192], "dtype": "float32", "quantization": {"min": -0.02865959005612953, "scale": 0.0002703734910955616, "dtype": "uint8"}}, {"name": "Block8_5_Branch_1_Conv2d_0b_1x3_BatchNorm/beta", "shape": [192], "dtype": "float32", "quantization": {"min": -0.386910617351532, "scale": 0.0015171844067534788, "dtype": "uint8"}}, {"name": "Block8_5_Branch_1_Conv2d_0b_1x3_BatchNorm/moving_mean", "shape": [192], "dtype": "float32", "quantization": {"min": -0.163208985591636, "scale": 0.0009544385122317894, "dtype": "uint8"}}, {"name": "Block8_5_Branch_1_Conv2d_0b_1x3_BatchNorm/moving_variance", "shape": [192], "dtype": "float32", "quantization": {"min": 0.0010418256279081106, "scale": 4.4616637751460075e-05, "dtype": "uint8"}}, {"name": "Block8_5_Branch_1_Conv2d_0c_3x1/kernel", "shape": [3, 1, 192, 192], "dtype": "float32", "quantization": {"min": -0.03422365553092723, "scale": 0.00024980770460530824, "dtype": "uint8"}}, {"name": "Block8_5_Branch_1_Conv2d_0c_3x1_BatchNorm/beta", "shape": [192], "dtype": "float32", "quantization": {"min": -0.14851038596209357, "scale": 0.002475173099368226, "dtype": "uint8"}}, {"name": "Block8_5_Branch_1_Conv2d_0c_3x1_BatchNorm/moving_mean", "shape": [192], "dtype": "float32", "quantization": {"min": -0.29932630512059905, "scale": 0.0017923730845544853, "dtype": "uint8"}}, {"name": "Block8_5_Branch_1_Conv2d_0c_3x1_BatchNorm/moving_variance", "shape": [192], "dtype": "float32", "quantization": {"min": 0.0029246790800243616, "scale": 2.535302831115676e-05, "dtype": "uint8"}}, {"name": "Block8_5_Conv2d_1x1/kernel", "shape": [1, 1, 384, 1792], "dtype": "float32", "quantization": {"min": -0.05651663516958555, "scale": 0.0004749297073074416, "dtype": "uint8"}}, {"name": "Block8_5_Conv2d_1x1/bias", "shape": [1792], "dtype": "float32", "quantization": {"min": -0.3651903436464422, "scale": 0.0018632160390124602, "dtype": "uint8"}}, {"name": "Block8_6_Branch_0_Conv2d_1x1/kernel", "shape": [1, 1, 1792, 192], "dtype": "float32", "quantization": {"min": -0.11148065328598022, "scale": 0.0008197106859263251, "dtype": "uint8"}}, {"name": "Block8_6_Branch_0_Conv2d_1x1_BatchNorm/beta", "shape": [192], "dtype": "float32", "quantization": {"min": -0.6356912594799902, "scale": 0.0028506334505829156, "dtype": "uint8"}}, {"name": "Block8_6_Branch_0_Conv2d_1x1_BatchNorm/moving_mean", "shape": [192], "dtype": "float32", "quantization": {"min": -0.0549593650754176, "scale": 0.00032520334364152424, "dtype": "uint8"}}, {"name": "Block8_6_Branch_0_Conv2d_1x1_BatchNorm/moving_variance", "shape": [192], "dtype": "float32", "quantization": {"min": 0.0006770202307961881, "scale": 3.2784857823714323e-06, "dtype": "uint8"}}, {"name": "Block8_6_Branch_1_Conv2d_0a_1x1/kernel", "shape": [1, 1, 1792, 192], "dtype": "float32", "quantization": {"min": -0.07878983073374804, "scale": 0.0008472024810080434, "dtype": "uint8"}}, {"name": "Block8_6_Branch_1_Conv2d_0a_1x1_BatchNorm/beta", "shape": [192], "dtype": "float32", "quantization": {"min": -1.0346434527752446, "scale": 0.006122150608137542, "dtype": "uint8"}}, {"name": "Block8_6_Branch_1_Conv2d_0a_1x1_BatchNorm/moving_mean", "shape": [192], "dtype": "float32", "quantization": {"min": -0.10934370189320808, "scale": 0.0012714383941070707, "dtype": "uint8"}}, {"name": "Block8_6_Branch_1_Conv2d_0a_1x1_BatchNorm/moving_variance", "shape": [192], "dtype": "float32", "quantization": {"min": 0.00046123634092509747, "scale": 1.3158484088147387e-05, "dtype": "uint8"}}, {"name": "Block8_6_Branch_1_Conv2d_0b_1x3/kernel", "shape": [1, 3, 192, 192], "dtype": "float32", "quantization": {"min": -0.09928268457160276, "scale": 0.0007354272931229834, "dtype": "uint8"}}, {"name": "Block8_6_Branch_1_Conv2d_0b_1x3_BatchNorm/beta", "shape": [192], "dtype": "float32", "quantization": {"min": -0.9757763432521447, "scale": 0.005303132300283395, "dtype": "uint8"}}, {"name": "Block8_6_Branch_1_Conv2d_0b_1x3_BatchNorm/moving_mean", "shape": [192], "dtype": "float32", "quantization": {"min": -0.20508164050532324, "scale": 0.001444236904967065, "dtype": "uint8"}}, {"name": "Block8_6_Branch_1_Conv2d_0b_1x3_BatchNorm/moving_variance", "shape": [192], "dtype": "float32", "quantization": {"min": 0.0019071249989792705, "scale": 5.60732672502305e-05, "dtype": "uint8"}}, {"name": "Block8_6_Branch_1_Conv2d_0c_3x1/kernel", "shape": [3, 1, 192, 192], "dtype": "float32", "quantization": {"min": -0.03919804617762566, "scale": 0.0003350260357062022, "dtype": "uint8"}}, {"name": "Block8_6_Branch_1_Conv2d_0c_3x1_BatchNorm/beta", "shape": [192], "dtype": "float32", "quantization": {"min": -1.3805313110351562, "scale": 0.005082047511549557, "dtype": "uint8"}}, {"name": "Block8_6_Branch_1_Conv2d_0c_3x1_BatchNorm/moving_mean", "shape": [192], "dtype": "float32", "quantization": {"min": -0.2462776005268097, "scale": 0.000790435031932943, "dtype": "uint8"}}, {"name": "Block8_6_Branch_1_Conv2d_0c_3x1_BatchNorm/moving_variance", "shape": [192], "dtype": "float32", "quantization": {"min": 0.00476200832054019, "scale": 4.5936381188677806e-05, "dtype": "uint8"}}, {"name": "Block8_6_Conv2d_1x1/kernel", "shape": [1, 1, 384, 1792], "dtype": "float32", "quantization": {"min": -0.050791546527077173, "scale": 0.0003576869473737829, "dtype": "uint8"}}, {"name": "Block8_6_Conv2d_1x1/bias", "shape": [1792], "dtype": "float32", "quantization": {"min": -1.5011258732746628, "scale": 0.005956848703470885, "dtype": "uint8"}}, {"name": "Bottleneck/kernel", "shape": [1792, 512], "dtype": "float32", "quantization": {"min": -0.029078990272154995, "scale": 0.0002219770249782824, "dtype": "uint8"}}, {"name": "Bottleneck_BatchNorm/beta", "shape": [512], "dtype": "float32", "quantization": {"min": -0.047597470003015854, "scale": 0.00037185523439856136, "dtype": "uint8"}}, {"name": "Bottleneck_BatchNorm/moving_mean", "shape": [512], "dtype": "float32", "quantization": {"min": -0.009193316408816507, "scale": 7.597782156046699e-05, "dtype": "uint8"}}, {"name": "Bottleneck_BatchNorm/moving_variance", "shape": [512], "dtype": "float32", "quantization": {"min": 0.014149989932775497, "scale": 1.4268234372138977e-05, "dtype": "uint8"}}, {"name": "Conv2d_1a_3x3/kernel", "shape": [3, 3, 3, 32], "dtype": "float32", "quantization": {"min": -0.19978730421440274, "scale": 0.0016111879372129254, "dtype": "uint8"}}, {"name": "Conv2d_1a_3x3_BatchNorm/beta", "shape": [32], "dtype": "float32", "quantization": {"min": -1.6470310342078114, "scale": 0.017902511241389255, "dtype": "uint8"}}, {"name": "Conv2d_1a_3x3_BatchNorm/moving_mean", "shape": [32], "dtype": "float32", "quantization": {"min": -0.22939317951015398, "scale": 0.0022939317951015397, "dtype": "uint8"}}, {"name": "Conv2d_1a_3x3_BatchNorm/moving_variance", "shape": [32], "dtype": "float32", "quantization": {"min": 0.0010600173845887184, "scale": 0.00035780366948422263, "dtype": "uint8"}}, {"name": "Conv2d_2a_3x3/kernel", "shape": [3, 3, 32, 32], "dtype": "float32", "quantization": {"min": -0.32665693830041326, "scale": 0.0025322243279101804, "dtype": "uint8"}}, {"name": "Conv2d_2a_3x3_BatchNorm/beta", "shape": [32], "dtype": "float32", "quantization": {"min": -2.1012246935975316, "scale": 0.016163266873827166, "dtype": "uint8"}}, {"name": "Conv2d_2a_3x3_BatchNorm/moving_mean", "shape": [32], "dtype": "float32", "quantization": {"min": -1.7240445342718387, "scale": 0.014248301936130898, "dtype": "uint8"}}, {"name": "Conv2d_2a_3x3_BatchNorm/moving_variance", "shape": [32], "dtype": "float32", "quantization": {"min": 0.017882617190480232, "scale": 0.001861844803480541, "dtype": "uint8"}}, {"name": "Conv2d_2b_3x3/kernel", "shape": [3, 3, 32, 64], "dtype": "float32", "quantization": {"min": -0.18003155428404902, "scale": 0.0011044880630923252, "dtype": "uint8"}}, {"name": "Conv2d_2b_3x3_BatchNorm/beta", "shape": [64], "dtype": "float32", "quantization": {"min": -1.393223568504932, "scale": 0.011145788548039454, "dtype": "uint8"}}, {"name": "Conv2d_2b_3x3_BatchNorm/moving_mean", "shape": [64], "dtype": "float32", "quantization": {"min": -1.98124739001779, "scale": 0.01467590659272437, "dtype": "uint8"}}, {"name": "Conv2d_2b_3x3_BatchNorm/moving_variance", "shape": [64], "dtype": "float32", "quantization": {"min": 0.02535972185432911, "scale": 0.0023172884522115484, "dtype": "uint8"}}, {"name": "Conv2d_3b_1x1/kernel", "shape": [1, 1, 64, 80], "dtype": "float32", "quantization": {"min": -0.23497162496342378, "scale": 0.0018074740381801829, "dtype": "uint8"}}, {"name": "Conv2d_3b_1x1_BatchNorm/beta", "shape": [80], "dtype": "float32", "quantization": {"min": -1.343000472760668, "scale": 0.010330772867389754, "dtype": "uint8"}}, {"name": "Conv2d_3b_1x1_BatchNorm/moving_mean", "shape": [80], "dtype": "float32", "quantization": {"min": -0.9541977412560406, "scale": 0.00944750238867367, "dtype": "uint8"}}, {"name": "Conv2d_3b_1x1_BatchNorm/moving_variance", "shape": [80], "dtype": "float32", "quantization": {"min": 0.017812147736549377, "scale": 0.0014005340197507073, "dtype": "uint8"}}, {"name": "Conv2d_4a_3x3/kernel", "shape": [3, 3, 80, 192], "dtype": "float32", "quantization": {"min": -0.09271032021326177, "scale": 0.0006718139145888534, "dtype": "uint8"}}, {"name": "Conv2d_4a_3x3_BatchNorm/beta", "shape": [192], "dtype": "float32", "quantization": {"min": -1.55775687975042, "scale": 0.007867458988638484, "dtype": "uint8"}}, {"name": "Conv2d_4a_3x3_BatchNorm/moving_mean", "shape": [192], "dtype": "float32", "quantization": {"min": -1.0040011920180976, "scale": 0.009127283563800886, "dtype": "uint8"}}, {"name": "Conv2d_4a_3x3_BatchNorm/moving_variance", "shape": [192], "dtype": "float32", "quantization": {"min": 0.02373477630317211, "scale": 0.007959296780766225, "dtype": "uint8"}}, {"name": "Conv2d_4b_3x3/kernel", "shape": [3, 3, 192, 256], "dtype": "float32", "quantization": {"min": -0.1157663569730871, "scale": 0.0007235397310817943, "dtype": "uint8"}}, {"name": "Conv2d_4b_3x3_BatchNorm/beta", "shape": [256], "dtype": "float32", "quantization": {"min": -1.7182723968636757, "scale": 0.007881983471851723, "dtype": "uint8"}}, {"name": "Conv2d_4b_3x3_BatchNorm/moving_mean", "shape": [256], "dtype": "float32", "quantization": {"min": -1.3050130605697632, "scale": 0.005108432205138253, "dtype": "uint8"}}, {"name": "Conv2d_4b_3x3_BatchNorm/moving_variance", "shape": [256], "dtype": "float32", "quantization": {"min": 5.490634430316277e-05, "scale": 0.055670212489577334, "dtype": "uint8"}}, {"name": "Mixed_6a_Branch_0_Conv2d_1a_3x3/kernel", "shape": [3, 3, 256, 384], "dtype": "float32", "quantization": {"min": -0.039197554190953575, "scale": 0.0003563414017359416, "dtype": "uint8"}}, {"name": "Mixed_6a_Branch_0_Conv2d_1a_3x3_BatchNorm/beta", "shape": [384], "dtype": "float32", "quantization": {"min": -1.6721845865249634, "scale": 0.004356612411199831, "dtype": "uint8"}}, {"name": "Mixed_6a_Branch_0_Conv2d_1a_3x3_BatchNorm/moving_mean", "shape": [384], "dtype": "float32", "quantization": {"min": -0.3266079365038404, "scale": 0.001540603474074719, "dtype": "uint8"}}, {"name": "Mixed_6a_Branch_0_Conv2d_1a_3x3_BatchNorm/moving_variance", "shape": [384], "dtype": "float32", "quantization": {"min": 2.4249501962003706e-08, "scale": 7.880010135287576e-05, "dtype": "uint8"}}, {"name": "Mixed_6a_Branch_1_Conv2d_0a_1x1/kernel", "shape": [1, 1, 256, 192], "dtype": "float32", "quantization": {"min": -0.08885139811272715, "scale": 0.0007933160545779209, "dtype": "uint8"}}, {"name": "Mixed_6a_Branch_1_Conv2d_0a_1x1_BatchNorm/beta", "shape": [192], "dtype": "float32", "quantization": {"min": -1.622502729471992, "scale": 0.008406749893637265, "dtype": "uint8"}}, {"name": "Mixed_6a_Branch_1_Conv2d_0a_1x1_BatchNorm/moving_mean", "shape": [192], "dtype": "float32", "quantization": {"min": -0.0842439988080193, "scale": 0.0006104637594784007, "dtype": "uint8"}}, {"name": "Mixed_6a_Branch_1_Conv2d_0a_1x1_BatchNorm/moving_variance", "shape": [192], "dtype": "float32", "quantization": {"min": 0.0002538343833293766, "scale": 5.63919163016858e-06, "dtype": "uint8"}}, {"name": "Mixed_6a_Branch_1_Conv2d_0b_3x3/kernel", "shape": [3, 3, 192, 192], "dtype": "float32", "quantization": {"min": -0.06312881731519512, "scale": 0.00045092012367996514, "dtype": "uint8"}}, {"name": "Mixed_6a_Branch_1_Conv2d_0b_3x3_BatchNorm/beta", "shape": [192], "dtype": "float32", "quantization": {"min": -1.5538771274043066, "scale": 0.010499169779758828, "dtype": "uint8"}}, {"name": "Mixed_6a_Branch_1_Conv2d_0b_3x3_BatchNorm/moving_mean", "shape": [192], "dtype": "float32", "quantization": {"min": -0.28454313733998465, "scale": 0.001505519245185104, "dtype": "uint8"}}, {"name": "Mixed_6a_Branch_1_Conv2d_0b_3x3_BatchNorm/moving_variance", "shape": [192], "dtype": "float32", "quantization": {"min": 0.00569282379001379, "scale": 0.000232543113331, "dtype": "uint8"}}, {"name": "Mixed_6a_Branch_1_Conv2d_1a_3x3/kernel", "shape": [3, 3, 192, 256], "dtype": "float32", "quantization": {"min": -0.05472578128763274, "scale": 0.0005162809555437051, "dtype": "uint8"}}, {"name": "Mixed_6a_Branch_1_Conv2d_1a_3x3_BatchNorm/beta", "shape": [256], "dtype": "float32", "quantization": {"min": -1.191617488861084, "scale": 0.003257520175447651, "dtype": "uint8"}}, {"name": "Mixed_6a_Branch_1_Conv2d_1a_3x3_BatchNorm/moving_mean", "shape": [256], "dtype": "float32", "quantization": {"min": -1.6249589902513166, "scale": 0.00792662922073813, "dtype": "uint8"}}, {"name": "Mixed_6a_Branch_1_Conv2d_1a_3x3_BatchNorm/moving_variance", "shape": [256], "dtype": "float32", "quantization": {"min": 0.04998297244310379, "scale": 0.016714913441854364, "dtype": "uint8"}}, {"name": "Mixed_7a_Branch_0_Conv2d_0a_1x1/kernel", "shape": [1, 1, 896, 256], "dtype": "float32", "quantization": {"min": -0.07028757567499198, "scale": 0.0006630903365565282, "dtype": "uint8"}}, {"name": "Mixed_7a_Branch_0_Conv2d_0a_1x1_BatchNorm/beta", "shape": [256], "dtype": "float32", "quantization": {"min": -1.2213696241378784, "scale": 0.00440682952894884, "dtype": "uint8"}}, {"name": "Mixed_7a_Branch_0_Conv2d_0a_1x1_BatchNorm/moving_mean", "shape": [256], "dtype": "float32", "quantization": {"min": -0.053827493506319386, "scale": 0.0004984027176511054, "dtype": "uint8"}}, {"name": "Mixed_7a_Branch_0_Conv2d_0a_1x1_BatchNorm/moving_variance", "shape": [256], "dtype": "float32", "quantization": {"min": 0.0001341503084404394, "scale": 2.8587672882256847e-06, "dtype": "uint8"}}, {"name": "Mixed_7a_Branch_0_Conv2d_1a_3x3/kernel", "shape": [3, 3, 256, 384], "dtype": "float32", "quantization": {"min": -0.04172136895358562, "scale": 0.0002726886859711479, "dtype": "uint8"}}, {"name": "Mixed_7a_Branch_0_Conv2d_1a_3x3_BatchNorm/beta", "shape": [384], "dtype": "float32", "quantization": {"min": -0.9029198884963989, "scale": 0.0019615008550531725, "dtype": "uint8"}}, {"name": "Mixed_7a_Branch_0_Conv2d_1a_3x3_BatchNorm/moving_mean", "shape": [384], "dtype": "float32", "quantization": {"min": -0.16250181198120117, "scale": 0.00047341373329069103, "dtype": "uint8"}}, {"name": "Mixed_7a_Branch_0_Conv2d_1a_3x3_BatchNorm/moving_variance", "shape": [384], "dtype": "float32", "quantization": {"min": 0.005488998722285032, "scale": 0.00018001111297338617, "dtype": "uint8"}}, {"name": "Mixed_7a_Branch_1_Conv2d_0a_1x1/kernel", "shape": [1, 1, 896, 256], "dtype": "float32", "quantization": {"min": -0.07067220701890833, "scale": 0.000642474609262803, "dtype": "uint8"}}, {"name": "Mixed_7a_Branch_1_Conv2d_0a_1x1_BatchNorm/beta", "shape": [256], "dtype": "float32", "quantization": {"min": -1.0378121137619019, "scale": 0.003783198110028809, "dtype": "uint8"}}, {"name": "Mixed_7a_Branch_1_Conv2d_0a_1x1_BatchNorm/moving_mean", "shape": [256], "dtype": "float32", "quantization": {"min": -0.048395499236443464, "scale": 0.0004172025796245126, "dtype": "uint8"}}, {"name": "Mixed_7a_Branch_1_Conv2d_0a_1x1_BatchNorm/moving_variance", "shape": [256], "dtype": "float32", "quantization": {"min": 0.00011140547576360404, "scale": 1.8893632645189178e-06, "dtype": "uint8"}}, {"name": "Mixed_7a_Branch_1_Conv2d_1a_3x3/kernel", "shape": [3, 3, 256, 256], "dtype": "float32", "quantization": {"min": -0.032069433962597566, "scale": 0.0002323872026275186, "dtype": "uint8"}}, {"name": "Mixed_7a_Branch_1_Conv2d_1a_3x3_BatchNorm/beta", "shape": [256], "dtype": "float32", "quantization": {"min": -0.8379694223403931, "scale": 0.0018145761069129494, "dtype": "uint8"}}, {"name": "Mixed_7a_Branch_1_Conv2d_1a_3x3_BatchNorm/moving_mean", "shape": [256], "dtype": "float32", "quantization": {"min": -0.17212225496768951, "scale": 0.000447644395571129, "dtype": "uint8"}}, {"name": "Mixed_7a_Branch_1_Conv2d_1a_3x3_BatchNorm/moving_variance", "shape": [256], "dtype": "float32", "quantization": {"min": 0.00566457211971283, "scale": 0.0002901929558492174, "dtype": "uint8"}}, {"name": "Mixed_7a_Branch_2_Conv2d_0a_1x1/kernel", "shape": [1, 1, 896, 256], "dtype": "float32", "quantization": {"min": -0.08468625738340266, "scale": 0.0006774900590672213, "dtype": "uint8"}}, {"name": "Mixed_7a_Branch_2_Conv2d_0a_1x1_BatchNorm/beta", "shape": [256], "dtype": "float32", "quantization": {"min": -1.3588144779205322, "scale": 0.003869072362488391, "dtype": "uint8"}}, {"name": "Mixed_7a_Branch_2_Conv2d_0a_1x1_BatchNorm/moving_mean", "shape": [256], "dtype": "float32", "quantization": {"min": -0.07961852696596408, "scale": 0.0005606938518729865, "dtype": "uint8"}}, {"name": "Mixed_7a_Branch_2_Conv2d_0a_1x1_BatchNorm/moving_variance", "shape": [256], "dtype": "float32", "quantization": {"min": 0.0002252394479000941, "scale": 7.84129683868777e-06, "dtype": "uint8"}}, {"name": "Mixed_7a_Branch_2_Conv2d_0b_3x3/kernel", "shape": [3, 3, 256, 256], "dtype": "float32", "quantization": {"min": -0.04915306483413659, "scale": 0.00044684604394669625, "dtype": "uint8"}}, {"name": "Mixed_7a_Branch_2_Conv2d_0b_3x3_BatchNorm/beta", "shape": [256], "dtype": "float32", "quantization": {"min": -1.4608685970306396, "scale": 0.005227767427762349, "dtype": "uint8"}}, {"name": "Mixed_7a_Branch_2_Conv2d_0b_3x3_BatchNorm/moving_mean", "shape": [256], "dtype": "float32", "quantization": {"min": -0.07360186812047864, "scale": 0.0004111836207847969, "dtype": "uint8"}}, {"name": "Mixed_7a_Branch_2_Conv2d_0b_3x3_BatchNorm/moving_variance", "shape": [256], "dtype": "float32", "quantization": {"min": 0.0006911680684424937, "scale": 2.258627780475745e-05, "dtype": "uint8"}}, {"name": "Mixed_7a_Branch_2_Conv2d_1a_3x3/kernel", "shape": [3, 3, 256, 256], "dtype": "float32", "quantization": {"min": -0.04278591269371556, "scale": 0.0003266100205627142, "dtype": "uint8"}}, {"name": "Mixed_7a_Branch_2_Conv2d_1a_3x3_BatchNorm/beta", "shape": [256], "dtype": "float32", "quantization": {"min": -0.7806148582813787, "scale": 0.0033647192167300805, "dtype": "uint8"}}, {"name": "Mixed_7a_Branch_2_Conv2d_1a_3x3_BatchNorm/moving_mean", "shape": [256], "dtype": "float32", "quantization": {"min": -0.3329349458217621, "scale": 0.0008455130691621817, "dtype": "uint8"}}, {"name": "Mixed_7a_Branch_2_Conv2d_1a_3x3_BatchNorm/moving_variance", "shape": [256], "dtype": "float32", "quantization": {"min": 0.08205083012580872, "scale": 0.0022486858508166145, "dtype": "uint8"}}]}]}